logs/rsl_rl/cartpole/2024-08-04_20-20-52/model_50.pt (torch, 45554 bytes, 30 tensors)

actor.0.weight f4 [32, 4]
000000 6a f9 da 3c 74 91 1e 3f 54 96 01 3e 12 28 71 3c
       0.026730258 0.61940694 0.12655002 0.014719026
000010 53 f0 53 3e 4e cb df bd 76 c9 98 be d8 89 64 3c
       0.20697145 -0.10927449 -0.29841202 0.01394888
000020 3d ee 5a 3e 17 9f ce 3e b5 11 01 be 52 4a e0 bd
       0.21379943 0.4035575 -0.12604411 -0.109516755
000030 f9 c5 e4 3e aa 30 c9 3e 17 e1 4e be 8e 9a 12 be
       0.4468229 0.3929494 -0.20203052 -0.1431677
000040 13 2b e3 bd 9c 9a 41 3e f1 96 ef bd dd 8e 8f 3e
       -0.110922 0.18906635 -0.11698712 0.28038684
000050 a5 ff 4c 3e a7 f9 f5 bc 3b 35 41 3e 93 da 8f be
       0.20019396 -0.03002627 0.18867962 -0.28096446
000060 2f 1b 98 bc 41 0e d8 be eb 9f e2 be 30 f9 08 bd
       -0.01856765 -0.42198375 -0.44262633 -0.03344077
000070 3c 65 bf 3b 67 58 0d 3e 33 17 80 3d f7 bd e0 be
       0.0058409255 0.13803254 0.06254425 -0.43894932
000080 c3 f2 99 3d af db 75 3e 7f 8c dc 3d 84 f0 9c 3d
       0.07517006 0.24009584 0.10768985 0.07663062
000090 c2 c7 11 3e b0 e9 3e 3f 7d 6b 04 be 35 5b 3f 3e
       0.14236358 0.7457533 -0.12931629 0.18687136
0000a0 48 0a 61 3d a0 49 de 3d db 62 ea 3c f2 85 32 3e
       0.054941446 0.108538866 0.028611591 0.17433909
0000b0 4c db 1f be 19 52 0b bf a5 24 03 bf 86 2f c3 3e
       -0.15610999 -0.54422146 -0.5122779 0.38122195
0000c0 dc bd 44 b9 f8 99 25 3e c5 d2 c2 3d 8c 8c 09 bc
       -0.00018762745 0.16172016 0.09512857 -0.008395325
0000d0 7e d4 1f 3e a1 31 12 3f 34 33 9e bd 55 4e 8a bd
       0.15608403 0.5710698 -0.0772461 -0.06753222
0000e0 2d 20 ef be 00 dd 3f 3f e8 90 d2 3d 91 73 1d 3f
       -0.46704236 0.74946594 0.10281545 0.61504465
0000f0 b4 a4 e7 3d 8d 31 82 3f e2 0b 88 be 6a 08 83 bd
       0.113107115 1.0171372 -0.26571566 -0.06398089
000100 bc 80 05 3f 28 f2 94 3d e1 db 6f be c5 78 01 bd
       0.5214956 0.0727275 -0.23423721 -0.031609315
000110 a3 92 cb be d1 23 a8 3e 93 07 c4 3e 04 da a7 be
       -0.39760312 0.32839826 0.3828703 -0.3278352
000120 08 c3 2e 3f 19 94 1a 3e 6f bc 18 3f 0b ca 3b 3e
       0.68266344 0.15095557 0.59662527 0.18338792
000130 d6 d5 9d bd 97 5a b4 bd 37 53 31 3e e2 44 9c 3e
       -0.077068016 -0.08806341 0.173169 0.30521303
000140 43 ec c0 3e 2e 02 b4 3e ca ac 59 be b0 89 ad 3b
       0.37680253 0.35157913 -0.2125732 0.0052959546
000150 27 d4 55 bd 06 3a e1 3e 6c 88 7d 3d 9c ff 58 be
       -0.052204277 0.4398958 0.06189768 -0.21191257
000160 0e 10 93 3e 94 4d 8b 3e af 4f a2 bd 24 5c a9 3d
       0.28723186 0.27207625 -0.07925355 0.082695276
000170 b2 4f 96 bd 43 d2 49 bd 25 29 2e 3f b5 2e 0d bf
       -0.073394194 -0.049272787 0.6803153 -0.55149394
000180 b1 66 70 3e a9 67 79 be e8 a6 1a 3d bd 5c fe bc
       0.23476674 -0.2435595 0.03775683 -0.03105008
000190 a7 f8 0a be 91 04 ee be 21 e2 b6 3e 6b a9 d0 be
       -0.13571416 -0.4648786 0.35719398 -0.40754256
0001a0 86 37 c6 be 54 f7 70 bf 46 1f 90 3e 38 ff d5 3d
       -0.38714236 -0.9412739 0.2814886 0.1044907
0001b0 24 4f 04 bf fd 0b 04 3e b8 2b e3 3d ca b9 95 3a
       -0.5168326 0.12895198 0.11092323 0.0011423167
0001c0 0e 5d 14 3f 32 8d ae 3f f3 fe 0a bf 0f c0 58 3f
       0.5795449 1.3636839 -0.5429527 0.8466806
0001d0 7e 08 3b bd 06 d0 b3 3d e7 4d c9 be 25 ef e0 3d
       -0.045662396 0.08779912 -0.39317247 0.10983113
0001e0 bc b0 08 3e 93 c9 ea 3f a7 6e fa bd 2f d3 cb 3e
       0.13348669 1.8342766 -0.122281365 0.39809558
0001f0 ca c0 28 bc c0 60 7e 3f 44 79 68 be 80 cf 84 be
       -0.010299871 0.9936638 -0.22702509 -0.2593956

actor.0.bias f4 [32]
000000 12 27 97 3e aa 5a d3 be 1f 26 4a be 1e 69 d2 3c
       0.29521996 -0.4128011 -0.19741105 0.02568489
000010 9a 7e c1 bc 3a bd 12 3e 6e 7d e6 be a7 29 15 bf
       -0.023619939 0.14329997 -0.4501757 -0.5826668
000020 82 aa 9e 3e 41 7e 1b be 07 38 de 3e 1e 02 c3 3c
       0.30989462 -0.15184881 0.4340212 0.02380472
000030 da fc 89 3d 30 d2 a3 3e 7e 70 90 3e 2d 4a 94 3d
       0.06737681 0.31996298 0.28210825 0.072407104
000040 33 3b 8d bd 03 89 7a be 9d fd 43 be 1d 2e a0 3d
       -0.06896057 -0.24466328 -0.19139715 0.078212954
000050 d9 3f 9a 3e fa ae 9d bc 78 c5 8c be 83 0c 52 be
       0.30126837 -0.019248474 -0.27494407 -0.20512585
000060 bb 09 ed be a9 3a 36 bf e4 60 ab be 60 78 86 3d
       -0.46296486 -0.7118326 -0.3347236 0.065659285
000070 65 62 66 be 6f 41 9c be e5 5c aa ba f1 6d eb bb
       -0.22498472 -0.30518672 -0.0012997655 -0.007184737

actor.2.weight f4 [32, 32]
000000 ca bd 3b 3e d9 cf 1f be e4 0b 24 3e a9 7c 16 3e
       0.18334118 -0.15606631 0.16020161 0.14695992
000010 c6 71 88 3d 7b 27 81 bd 56 12 c3 bd ae 2f 25 3c
       0.066623256 -0.063063584 -0.09524982 0.0100821685
000020 56 f3 9f bc 1a 83 a6 bd 0c 34 21 bd d5 44 8f 3d
       -0.019525211 -0.081304744 -0.039356276 0.069955505
000030 2c e5 0f 3e 7b e0 81 3a 4d b4 8c 3c 7d 2a 07 be
       0.14052266 0.0009908819 0.017175818 -0.13199802
000040 91 71 f0 bc 14 16 39 be d3 d7 83 bb dc 24 e7 bd
       -0.029351028 -0.18074828 -0.004023531 -0.11286327
000050 bc da c9 3d 97 72 eb bb 65 6a da bd b2 2d f5 39
       0.098561734 -0.007185291 -0.106648244 0.00046764087
000060 0b 0f 1c be 59 1f f9 3d 41 ef 4e 3d 1d 7c c9 3b
       -0.15240113 0.12164182 0.05052114 0.0061488287
000070 96 59 8a 3c 18 cd 36 3b eb d0 09 3e af c7 26 bd
       0.016888421 0.0027893241 0.13458602 -0.040717777
000080 cb 3d 32 bc 7d 19 27 bb b2 45 cc bd 9c 2a 11 be
       -0.01087899 -0.002549737 -0.09974231 -0.1417641
000090 0f ca a0 bd ed fe c8 bd df a8 1c 3d 1b 09 8a bc
       -0.078510396 -0.09814248 0.038246986 -0.016850045
0000a0 4f 90 9a 3d f8 0e 18 3e 90 5f 8d bd fe 93 a9 bd
       0.07547056 0.1484946 -0.06902993 -0.082801804
0000b0 0a 6b 72 bd b0 68 3f bd a3 4f ac bd 56 7e 15 3e
       -0.05918411 -0.046730697 -0.08413627 0.14598975
0000c0 d6 9d 51 bd 3c b4 db 3d 27 b0 39 3e f3 a8 a2 3c
       -0.051175915 0.10727736 0.18133603 0.019855952
0000d0 84 aa be bd 7b ef a4 3d ce 9b 21 be f3 b0 11 bd
       -0.09309867 0.0805349 -0.15782091 -0.035569143
0000e0 74 90 a4 3d f4 47 bb 3d 63 d5 36 3e da 85 dd bb
       0.08035365 0.09144583 0.17854838 -0.006760341
0000f0 57 92 0a 3e 28 d3 bc ba b7 b4 41 3d 45 c2 39 bb
       0.13532387 -0.0014406191 0.047291484 -0.0028344553
000100 b5 e5 f4 3d c6 42 99 ba 11 46 3b 3d 66 84 61 bd
       0.11957876 -0.0011692874 0.045721117 -0.055057906
000110 d5 38 55 bd ba 58 d4 3b 8c a9 65 bd 5b d3 36 be
       -0.052056152 0.0064803036 -0.056069896 -0.17854063
000120 ce 1e 84 bd ce bb 94 3d de 25 d3 3d 2c 5b f3 bd
       -0.06451188 0.072623834 0.10309957 -0.11882624
000130 cf 70 7a 3d 8e 99 c8 bd 08 6e 23 be 2a 44 c5 bc
       0.06114274 -0.09794913 -0.15959942 -0.024080355
000140 5b 8d ee 3d cc 4e 20 bd 57 19 82 be 99 92 19 3e
       0.11648055 -0.039137647 -0.25409958 0.14997329
000150 29 1a bb 3d 72 39 6e 3d 6f 09 4b bd f8 15 74 bd
       0.09135849 0.058160253 -0.049569543 -0.059591264
000160 e9 9b d7 bd be a5 16 3d a2 51 45 3d a9 2f 00 be
       -0.105277844 0.036779158 0.048173554 -0.12518181
000170 3f 2d 91 3e ec f8 df bc 9e f6 4b 3e 6a af ac 3d
       0.28354833 -0.027340375 0.19918296 0.08431895
000180 cf cc 3c bc 5a 32 bc bd 64 b8 c0 bd f8 4b 2e bd
       -0.01152344 -0.09189291 -0.0941017 -0.04255292
000190 3d 4f af 3d 8c d3 62 3e 9a d4 17 3e 67 b8 02 3e
       0.085600354 0.22151011 0.14827195 0.12765656
0001a0 69 41 01 bd d0 83 56 3d 66 b7 92 3d 57 3b 92 3d
       -0.03155652 0.0523718 0.07163887 0.071402244
0001b0 ec f8 17 3e f0 85 27 3e 45 c2 48 3e b6 07 35 bd
       0.1484105 0.16359687 0.19605358 -0.044196807
0001c0 40 e9 3b 3e 60 37 15 3d dd 47 b9 3d 4a d9 cc bd
       0.18350697 0.036429763 0.0904691 -0.10002382
0001d0 e0 ca aa 3d e9 44 b5 3d d1 e7 dc 3c 41 b6 1f be
       0.083394766 0.08851034 0.026966007 -0.15596868
0001e0 ce 7e 54 be d9 d5 97 3d ac fd 43 3b ed 37 b1 bd
       -0.20751497 0.07413835 0.002990584 -0.08653245
0001f0 77 14 d4 bd 01 1f 40 bd 91 e5 fc bd e4 a1 a0 bd
       -0.10355466 -0.046904568 -0.12348474 -0.07843378
000200 ce 96 e0 be 46 2d aa 3e 3c cc 7e bc 49 26 be bd
       -0.43865055 0.33237666 -0.015551623 -0.09284646
000210 d5 cf 61 be fc fc b4 3d df 57 54 3e 1c 69 33 3d
       -0.22051938 0.088373154 0.20736645 0.043801412
000220 3e 79 ed be 27 b1 a0 be b0 aa ee be c7 a5 43 bb
       -0.46381563 -0.31385157 -0.466146 -0.002985345
000230 81 12 33 bd 96 2d 21 bf 15 b9 05 bf d8 ae af be
       -0.04371882 -0.62960184 -0.5223554 -0.34313083
000240 3a 5c e4 bc 65 61 f8 bd d7 72 a0 be de f9 bb bd
       -0.027876008 -0.121279515 -0.31337616 -0.09178518
000250 a8 3a b9 be f1 21 18 be dd 17 6f 3d 3d 90 2a 3d
       -0.36177564 -0.14856698 0.058372367 0.041641463
000260 42 dd d2 bc 0d 95 3a 3e 6b 07 6c 3d 38 a8 e1 bd
       -0.02574027 0.18220921 0.05762426 -0.11018413
000270 fd 60 3d bd d2 36 91 bd 2f d4 28 bd ca f3 10 bf
       -0.046235073 -0.07090534 -0.04121798 -0.5662199
000280 2a fc 99 3d 14 ac e3 bc 75 cb b7 3d 63 cc 11 be
       0.075187996 -0.027792014 0.08974353 -0.14238124
000290 36 b9 0b 3e 1b 12 ca bc 91 40 8e bd 44 71 13 3e
       0.13644871 -0.024666836 -0.06945909 0.14398676
0002a0 26 48 d8 3d 94 ca 5c bc 6f bd 25 3e 01 c2 e1 bc
       0.10560636 -0.013476033 0.16185544 -0.027558329
0002b0 a6 a1 da bd 9f 0a b2 bc cc e5 17 bd 81 3b 67 3d
       -0.10675363 -0.02173358 -0.037084386 0.05645323
0002c0 5c 54 f6 3d 13 f4 ea 3d e3 bd 32 bd 5c 8a bf 3c
       0.12027809 0.11472335 -0.04363812 0.023381405
0002d0 ce 76 06 be 3b 2f fb 3d fd d3 d1 3c 5e e2 eb bc
       -0.13131258 0.12264868 0.02561378 -0.028794464
0002e0 29 00 ae 3d ab e9 c0 3b 12 02 48 bc 7d 96 b5 3d
       0.08496124 0.0058872304 -0.012207525 0.08866594
0002f0 3b 2d 31 3e c6 8e f5 3b 5a 56 11 be fb d1 02 3e
       0.1730241 0.0074938266 -0.14193097 0.12775414
000300 fa e7 f2 bd 4a 4a e4 3b 25 79 7f 3d 98 4a 80 3e
       -0.11860652 0.0069668638 0.06237139 0.2505691
000310 e6 1c 5b 3d f4 c6 16 3e b7 34 90 bd 4d 72 90 3c
       0.053494357 0.14724332 -0.070413046 0.017632628
000320 ed 80 a8 3d 10 03 17 be 52 95 21 be 1e 3b ac be
       0.08227716 -0.14747262 -0.15779617 -0.33638853
000330 a5 17 1a 3e 6c a1 83 3d 47 05 22 3d 05 40 c5 3d
       0.15048082 0.06427273 0.039555814 0.096313514
000340 61 3e 44 3e af 8d 9c bd 6f ce 77 3e 3b 69 24 3d
       0.1916442 -0.076442115 0.24199842 0.040139418
000350 e5 82 e9 bd 59 94 59 bd 7b c6 28 3e e1 40 a9 3c
       -0.11401919 -0.05311999 0.16481964 0.02066082
000360 a0 79 6c bd 8d a2 60 3d ef b3 99 be 2a 58 65 be
       -0.05773318 0.05484252 -0.3002009 -0.22396913
000370 b6 58 a2 be 9a 76 0b bd 4e 68 7f be 26 91 f3 bc
       -0.31708306 -0.034048654 -0.24942133 -0.029732298
000380 95 90 6b 3c ef 08 96 bc bd 13 54 be 2d 1f 99 be
       0.014377733 -0.018314807 -0.20710655 -0.29906598
000390 ee e5 18 be e3 34 d6 3d a8 08 82 be e0 09 08 be
       -0.14931461 0.10459306 -0.2539723 -0.13285017
0003a0 c9 5c 4e 3c 0f d2 b1 be 82 6b de 3d 3f 6c 5d be
       0.012595364 -0.34730574 0.10860349 -0.21623324
0003b0 9f a1 71 bd 27 76 7d bd 63 1d 5a 3d 48 d9 29 be
       -0.058992025 -0.061880257 0.05325068 -0.16586792
0003c0 f2 c9 37 be da 69 05 bb f1 bb df 3d 55 3c 3c 3e
       -0.1794813 -0.0020357282 0.10924519 0.1838239
0003d0 ab 76 06 be 7b d4 91 bd cd 19 78 3d 4a 33 0a be
       -0.13131206 -0.071206056 0.06057148 -0.13496128
0003e0 dc 3b 55 3d db 5c bc be e3 77 27 be c9 43 eb 3d
       0.05205904 -0.36789593 -0.16354327 0.11487538
0003f0 b2 c3 2b bf 6f 5a 3d 3d a7 3c 36 bf 79 eb 23 be
       -0.6709548 0.046228822 -0.711863 -0.16007794

actor.2.bias f4 [32]
000000 4c 2b f7 bd 5e 7f f4 bc 63 99 0c 3d 56 d9 25 be
       -0.12068805 -0.02984589 0.03432597 -0.16196188
000010 e2 b3 0d be 64 b9 fb bc 8d 5b 5f be 26 cf 0f be
       -0.13838151 -0.03072805 -0.21812268 -0.14043865
000020 4b 36 8d 3d 13 6c f2 bd 59 89 58 3d 80 ff 46 be
       0.06895121 -0.1183702 0.05286536 -0.19433403
000030 73 86 02 3c b7 d9 17 be 24 c0 0e 3e 41 8e ad bc
       0.0079666255 -0.14829145 0.13940483 -0.021185996
000040 14 02 21 bd 55 ef 0c be 39 9c 1d be d3 5d aa 3d
       -0.039308622 -0.13763173 -0.15391625 0.08318677
000050 e9 9d 3a 3e 98 3d 31 bd ff e0 21 bc d5 d2 18 be
       0.182243 -0.04327163 -0.009880303 -0.14924176
000060 6d 3b 0c 3d 20 83 c4 3d bd 6f 9d 3c b3 58 a5 bd
       0.03423636 0.095953226 0.01921832 -0.08073559
000070 58 99 0a be 55 d6 19 be bd 24 e5 3d fe 54 8b bd
       -0.13535058 -0.15023167 0.11188648 -0.0680332

actor.4.weight f4 [1, 32]
000000 97 fa 8e bb be 73 9a 3c 1c 7d a1 bd 22 0c 67 3b
       -0.0043633687 0.018854018 -0.07885191 0.0035255034
000010 cd 6b 61 be c6 67 ea 3a 57 b3 54 3e 49 0a a5 3e
       -0.22013779 0.001788371 0.20771538 0.3223441
000020 63 31 5f 3a 23 47 82 3c 48 07 39 be b7 0c 4a 3d
       0.0008514134 0.015903061 -0.18069184 0.049328532
000030 f6 86 af bc 5d 78 1b 3e 3e 7c 7a bc 7c 02 ad bd
       -0.02142666 0.15182634 -0.015288411 -0.084477395
000040 74 ac a3 3a ef 21 37 3d ed c8 b2 3c 75 0b ad 3e
       0.0012487308 0.044710096 0.021824325 0.33797804
000050 3f ef a5 bd f6 d1 e1 b9 91 6b 6d bb 65 2b e7 bd
       -0.08102273 -0.00043071777 -0.0036227445 -0.11287574
000060 8e 65 50 bc 5a 5a 22 be 5d 9c 03 3d 93 80 58 3d
       -0.012719525 -0.15854779 0.03213154 0.052856993
000070 65 fa 11 b8 c7 19 93 3e 1a 05 0d 3d 56 28 4f 3d
       -3.4803892e-05 0.28730604 0.034428693 0.050575577

critic.0.weight f4 [32, 4]
000000 0e a6 e1 be 70 57 31 3f ce a2 a9 be df 1d 90 3e
       -0.44072002 0.69274044 -0.33132023 0.2814779
000010 f8 9b a4 be fc fc 49 3e 21 d1 d7 3e 0c 9c 3d 3e
       -0.32150245 0.19725412 0.4215174 0.18516558
000020 ab ae aa be bc ff 1d be 9b 97 51 3f fa 87 c5 be
       -0.33336386 -0.15429586 0.81871957 -0.38580304
000030 d0 dc 63 bf ff c3 da 3e 9f b3 cf bb e8 d7 8a 3d
       -0.8900881 0.42727658 -0.006338551 0.06779462
000040 3f 5b 4b 3e 8b 5c ad be 8f 21 4c 3e 7b 10 01 3f
       0.19859026 -0.33859667 0.19934677 0.5041577
000050 63 4a 20 3e 82 a2 91 3f d3 e7 a5 be 47 fd ac 3e
       0.15653376 1.1377718 -0.3240343 0.33786985
000060 06 57 03 3f b1 5a 67 be 54 bc fa be e8 4f fa 3e
       0.5130466 -0.2259319 -0.48971808 0.4888909
000070 91 be 28 3f bf 6d dd 3d 16 09 ab be e2 a3 46 be
       0.6591578 0.10811948 -0.3340537 -0.19398454
000080 67 3a 57 bc 32 af 2b 3e 76 9c 4b 3e c5 70 1f be
       -0.013136483 0.1676605 0.19883904 -0.15570362
000090 ed 99 91 3e 20 85 a1 be bd c4 ca bd a3 bc 81 3e
       0.2843775 -0.3154688 -0.09900806 0.2533923
0000a0 3f ae 1d bf 5b 9d 02 bf c8 eb 94 3e ad fa 9e bc
       -0.61594003 -0.51021355 0.29086137 -0.01940664
0000b0 59 5c 74 be fa f9 43 bf 7e 00 bd 3e 2a 0d 8a be
       -0.23863353 -0.7655331 0.36914438 -0.26963168
0000c0 15 99 7e be c1 df 9c be fb 4a 19 3e 4e fd 29 be
       -0.24863084 -0.3063946 0.14970009 -0.16600534
0000d0 93 7a 44 bd 0f a2 47 bf ac b1 bd 3d 0e d5 e6 bd
       -0.04796846 -0.77981657 0.09262404 -0.11271106
0000e0 95 5c cc 3e 81 2d f2 be ca 26 27 be c3 ab b7 be
       0.39914384 -0.47300342 -0.1632339 -0.3587323
0000f0 8e 59 bd be 79 ef c8 bd 22 0d 76 be 20 fd 8b bd
       -0.36982387 -0.09811301 -0.24028447 -0.06835389
000100 5c b2 df bd b6 64 17 bd 10 89 bf bd 32 12 85 be
       -0.10922691 -0.03696128 -0.093523145 -0.25990444
000110 de 9c e4 3e 69 b6 4a 3e 73 95 6f 3e 0c ae ca bd
       0.4465093 0.19796146 0.23396854 -0.09896478
000120 87 0a 02 be 42 1d 4e bf 07 e3 28 3e 6f 5c 0c be
       -0.12699328 -0.80513394 0.16492854 -0.13707136
000130 02 66 3b 3c 3c bb 75 bf 4f fb 1b 3e 82 3b 0c be
       0.011437895 -0.9598882 0.15232585 -0.13694575
000140 99 e4 08 be 0b 4e 55 be 66 6a 66 be 78 bd 87 3e
       -0.13368453 -0.20830552 -0.22501525 0.2651174
000150 8a 6d 7b bf df d5 4e 3f 23 50 38 be d2 e8 c6 bd
       -0.9821402 0.8079509 -0.1799932 -0.09712376
000160 2a 4e da be 21 96 cd be 8e 00 95 3e 72 da 8a be
       -0.4263776 -0.40153602 0.29101986 -0.27119786
000170 cd 3f 0f bf e5 51 da 3e 45 7f 36 bd 35 8b 0e 3e
       -0.5595673 0.42640606 -0.044554967 0.13920291
000180 09 0e 4b bf 99 60 1b bd 87 26 69 bd 54 db cb 3c
       -0.7931829 -0.03793392 -0.05692151 0.024884857
000190 6a bf bc bd d4 f4 39 be 86 2a ed bd e1 74 45 be
       -0.09216197 -0.18159801 -0.11580376 -0.19282867
0001a0 c5 5d be 3d 58 11 c8 bd 07 54 3d 3e 86 e2 cd 3e
       0.09295229 -0.09768933 0.18489085 0.40211886
0001b0 3e ce e2 3d bd 6e 8e be b3 36 99 bc a6 71 6f 3c
       0.11074494 -0.27818862 -0.01870284 0.014614498
0001c0 8a e1 0d 3e cb 59 01 3f 96 8b 84 3e 69 20 ea bc
       0.13855568 0.5052764 0.25887746 -0.028579907
0001d0 4e 5a d7 3d 05 02 b8 3e 00 2c 72 3e 27 34 93 be
       0.10515271 0.3593904 0.23649597 -0.28750727
0001e0 ef da 09 3f 91 fa 8e 3f be 1e cb 3d ab 50 a7 3d
       0.5384969 1.1170217 0.09917973 0.08169683
0001f0 d9 b3 ae 3d a7 85 fd be 5b 1a 01 3f 39 3e d4 be
       0.08530397 -0.4951603 0.5043084 -0.41453722

critic.0.bias f4 [32]
000000 64 71 e1 be 62 ac fd be 68 c3 b7 3e 48 43 ce bd
       -0.44031823 -0.4954558 0.3589127 -0.10071427
000010 3a 53 0c be 1b 1a 63 be 40 af 1f be 2b 9b 92 be
       -0.13703623 -0.22177927 -0.15594196 -0.2863401
000020 74 09 36 bf 78 0c 65 3e 24 a4 4a 3d 74 6e 0c bf
       -0.71108174 0.22368038 0.049472943 -0.5485604
000030 12 38 00 bf 1a 69 04 bf 1e b9 00 3e a6 bf ec be
       -0.50085557 -0.5172287 0.12570617 -0.46239966
000040 2e 2f 99 be 18 2d 22 3e 67 28 6b be 75 a7 c9 be
       -0.29918808 0.15837514 -0.22964631 -0.39385572
000050 73 07 5a be fb bb 58 3e f8 6f 14 bf 9f 44 ef be
       -0.21291904 0.21165459 -0.5798335 -0.4673204
000060 12 b3 fb be 4d cb b6 bd 89 74 90 bd 3f d5 0f bf
       -0.49160057 -0.08925495 -0.07053477 -0.5618476
000070 45 e0 2f 3f c1 af da 3e 46 b8 e9 bd 59 6f 0a bf
       0.68701583 0.42712215 -0.114121005 -0.54076153

critic.2.weight f4 [32, 32]
000000 4a 17 65 bd 4d be 81 be a0 8a c4 be e9 c2 4a be
       -0.055930413 -0.253405 -0.38387012 -0.19800915
000010 0a ab 0e 3e 0b 01 df bd a5 38 ad 3d 84 6b 11 3e
       0.13932434 -0.10888871 0.0845807 0.1420117
000020 66 43 72 be 7c b1 55 3e 35 df bb bd 00 59 e1 be
       -0.23658523 0.20868486 -0.09173433 -0.44013214
000030 0c f7 a5 be 82 91 d1 be dd ce 9f bd a0 c3 d9 bd
       -0.32415044 -0.40931326 -0.07803128 -0.10633016
000040 e5 00 88 bd 27 c1 16 bd bf da e2 3c b4 79 f6 be
       -0.066407956 -0.0368053 0.027692197 -0.48139727
000050 73 85 ba 3d 73 8e 8a be 33 03 31 be 9e 81 e7 bc
       0.09107485 -0.27061805 -0.17286377 -0.028260048
000060 5f c4 e5 bd e8 7d 27 be 23 6b ce 3d 6b 17 13 be
       -0.112190954 -0.16356623 0.100790285 -0.14364402
000070 eb ff 1d bf 6c a8 6c be c1 dc 19 bf 35 cd 36 be
       -0.61718625 -0.23111123 -0.6010247 -0.17851718
000080 47 47 97 bb 7c b8 04 3e 81 05 eb bc c9 f0 59 be
       -0.004616651 0.12961 -0.028689148 -0.21283258
000090 46 77 39 3c 1b 79 5c 3c dc fc 13 3e 9f 9d a3 3d
       0.011319941 0.013456608 0.14451927 0.07989048
0000a0 ce da 5e 3b 7e 56 93 3d 6f d5 2b be 4b 59 21 be
       0.003400493 0.071942315 -0.16780637 -0.15756719
0000b0 79 3a 9d 3d 55 bf a7 bc 48 6c 9e 3a c4 9d 9a be
       0.076771684 -0.020476976 0.0012086714 -0.3019849
0000c0 1e ae 1a be 0c 71 2c 3e bf f2 e7 3d 17 24 1e 3e
       -0.15105483 0.16839999 0.11325597 0.15443455
0000d0 a9 20 37 be 14 aa 22 be b6 35 a8 3d 98 f8 ce bd
       -0.17883553 -0.15885192 0.082133695 -0.10106009
0000e0 cd 35 93 bb 9e 45 d3 3c e0 15 61 3c 9e 43 0b be
       -0.0044924975 0.025790032 0.013738126 -0.13600013
0000f0 4c 5d 36 3d 06 cd 08 3e 46 90 1b 3e 3e 8c 2d 3c
       0.04452257 0.1335946 0.15191755 0.010592518
000100 d7 6e 66 bd 56 13 0d 3d a2 34 04 be 86 67 28 3d
       -0.05625805 0.03444227 -0.12910703 0.041114353
000110 c5 36 35 be 67 1d 1a be be d8 01 3d 5d 68 f8 bd
       -0.17696674 -0.15050279 0.031700842 -0.12129281
000120 a0 c6 68 bb 87 8c 37 be df c4 1c be d9 e7 01 be
       -0.003551878 -0.179247 -0.15309475 -0.12686099
000130 21 92 41 3e df f1 04 3e 33 dc 2f be 0b 91 30 3e
       0.189034 0.12982891 -0.17173843 0.1724283
000140 bf dd 40 bd bd 83 b3 bd 3c 1b fe 3d c9 23 58 3d
       -0.047086474 -0.087653615 0.12407538 0.052768502
000150 df 3b ad bd 03 21 a9 be e8 29 5a be 56 07 77 be
       -0.08458685 -0.33032998 -0.21305048 -0.24123892
000160 c0 c6 b9 bd 54 95 ed 3d 9c 4e cc bd 2d d8 37 bc
       -0.09071112 0.11600748 -0.09975931 -0.011220974
000170 6e 35 d1 be 07 4a cc ba 7e 25 8b be 87 1b 36 be
       -0.40861076 -0.0015586027 -0.27177042 -0.17783938
000180 1c 7e 4f 3e a1 47 92 3d ef 65 56 3d d4 71 20 3e
       0.2026295 0.071425684 0.052343305 0.15668422
000190 fc 7e 44 3c 65 fe 11 bd 42 0b 0a be 2d e1 3e 3d
       0.011993166 -0.035643 -0.13480857 0.046601463
0001a0 1f 91 22 3e 6a 68 fd bd 8f 40 93 3d bd 52 87 3e
       0.15875672 -0.12373431 0.07190048 0.26430312
0001b0 4f 7a 8e 3c 60 24 39 3e 6a 24 c7 3d 6f 58 a2 3e
       0.017392306 0.18080282 0.09723742 0.31708094
0001c0 99 e5 24 3e 34 c4 1a be ff c2 1d 3e 70 d2 e5 3d
       0.1610321 -0.15113908 0.15406416 0.112217784
0001d0 aa dd 94 3e b9 e9 0e 3e 44 a5 00 3e 81 a4 63 3e
       0.29075366 0.13956346 0.12563044 0.22230722
0001e0 41 06 2f 3e be b9 f3 3d fa 97 ac bd 14 f2 7b 3e
       0.1709223 0.11900662 -0.08427425 0.24604064
0001f0 b6 64 2b be 9d 49 fe bd b9 a5 f8 bd 64 67 17 3e
       -0.16737637 -0.12416384 -0.12140984 0.14785534
000200 ff 45 3c 3c 8c 62 fb 3d 75 89 03 bd 6b 86 15 be
       0.011491298 0.12274656 -0.03211351 -0.14602058
000210 07 69 09 3e 28 91 1d be dd 0a 48 be 63 53 32 be
       0.13418971 -0.15387404 -0.19535394 -0.17414622
000220 40 60 05 3e e5 59 40 be 0f 84 0e bd 8a e3 2f be
       0.13024998 -0.18784292 -0.03479391 -0.17176643
000230 2f 7d cd 3d 19 ae 5f bd d2 ec d6 3c 33 8b be 3d
       0.100336425 -0.05460939 0.026235972 0.09303894
000240 ab 35 13 3e c0 36 10 3d b7 43 04 3d 81 b7 78 bd
       0.14375941 0.035208464 0.03229114 -0.060721878
000250 90 e5 3c 3e 3b e1 8b be 50 b6 90 bd 2e 18 87 3c
       0.18446946 -0.27320275 -0.07066023 0.016491022
000260 c0 15 26 bd bb 95 43 be c5 a3 3d be 74 48 17 3e
       -0.040548086 -0.19100086 -0.18519504 0.14773732
000270 f1 ac 97 be d9 a4 19 be fc ae c3 3a bd 30 83 be
       -0.2962413 -0.1500429 0.0014929469 -0.25623122
000280 42 9a 0f be e6 78 7a 3d 6b 3f 1a 3e bc 85 65 be
       -0.14023688 0.061150454 0.15063255 -0.22414297
000290 da 06 53 3d d2 e8 23 be db 60 5d bd 0f c2 01 bc
       0.051520206 -0.16006783 -0.054047447 -0.007919802
0002a0 a4 c3 f2 bd 99 8a 03 3e e6 60 86 3c 8b 8d 23 be
       -0.11853722 0.1284584 0.016403627 -0.15971963
0002b0 64 f7 5e be 1b 1e 10 bf d6 11 87 bb 7a 47 b0 bd
       -0.2177406 -0.5629594 -0.0041219993 -0.08607383
0002c0 4c 97 98 bd 91 47 cf bd 60 ea 3e be 29 7a 00 bf
       -0.074507326 -0.10121072 -0.18644094 -0.501864
0002d0 1a d2 a9 bd 02 1d 5f 3d 64 87 59 be 28 72 65 be
       -0.08292027 0.054471023 -0.21243054 -0.22406828
0002e0 c4 fe 43 be 14 0e ed 3d 25 54 9d bc 3d be 05 be
       -0.19140154 0.11574951 -0.019205162 -0.13060851
0002f0 eb 93 4a 3e 63 86 17 3e 33 3f a2 be de 02 9d be
       0.19782989 0.14797358 -0.31688842 -0.3066625
000300 9f bc 2e 3d 75 a1 4b 3d 9a 15 eb bd a9 15 77 3e
       0.04266035 0.049714524 -0.114787295 0.24129356
000310 05 ae 14 bc 87 d2 cf 3d af a7 65 be 91 dc a5 bd
       -0.009074693 0.10147577 -0.22427247 -0.0809871
000320 cb f0 5c be b6 bf 0a be 6d 4e ad 3e 8a 3e 43 3b
       -0.2157623 -0.13549694 0.33848897 0.0029791915
000330 bf 3b 96 3e 0f af d5 3d d7 ac d0 3d e7 90 e0 3e
       0.29342458 0.104337804 0.101892166 0.43860552
000340 db 41 50 bd 23 09 42 bd 08 f4 02 3e 0c bb 4a be
       -0.050844055 -0.047371995 0.12788403 -0.19797915
000350 b7 72 be 3b 31 60 cf 3d a8 ca 08 3e 44 19 62 3e
       0.005812015 0.10125769 0.13358557 0.2207995
000360 bd b1 ed 3e a2 4c bd 3d 4f 1f 9c 3d 2a bc c8 3c
       0.46424666 0.09243132 0.07623159 0.024503786
000370 d9 32 57 be cb 52 08 be 17 94 9e be 35 a6 32 be
       -0.2101549 -0.13312833 -0.3097236 -0.17446215
000380 72 17 65 be 97 23 16 3d 03 98 b9 bd f4 5f ae be
       -0.22372225 0.036655035 -0.09062197 -0.3405758
000390 0c 11 42 3e 90 ad 02 be ff a5 85 3d 53 b5 50 3d
       0.18951815 -0.12761521 0.06525802 0.050954174
0003a0 ac 5c 59 3e ee ce 91 bd cc 0f 2a 3e 7e 00 da 3d
       0.21226758 -0.07119547 0.16607589 0.10644625
0003b0 eb 07 a7 bd 5e 5f 32 3c d7 05 c6 3d c0 ed 17 be
       -0.08155807 0.010886995 0.096690826 -0.14836788
0003c0 6f 31 07 be 0b e4 fc 3b 59 25 e7 3d 64 c6 19 3e
       -0.13202451 0.0077176145 0.112864204 0.15017086
0003d0 af 61 0b bd 56 09 24 3d 4a 4d 78 bd 85 c0 1d bd
       -0.034028705 0.040047966 -0.060620584 -0.03851368
0003e0 ec d8 1a be 18 66 44 3d 29 bb a5 3d c9 ae 98 3d
       -0.15121812 0.047948927 0.080923386 0.074552126
0003f0 a7 65 5b be 17 05 0d 3e cc 1f 3c be 98 0d bd 3d
       -0.21425496 0.13771473 -0.18371505 0.092311084

critic.2.bias f4 [32]
000000 a0 85 f7 bd 77 8a 81 bd 1c b6 5a be b4 64 bb be
       -0.12086034 -0.06325238 -0.21358532 -0.36600268
000010 f9 9b 7c be 1f 05 ca 3c 16 a1 6b be 71 07 07 3d
       -0.24668874 0.024660645 -0.23010668 0.03296608
000020 06 19 50 bd 56 79 cb be 36 13 55 bd bc 21 8d be
       -0.050805114 -0.3974101 -0.052020274 -0.275648
000030 3a ab b1 bd 17 c6 e6 3d b2 49 07 3e ab 31 f2 bc
       -0.08675237 0.112682514 0.13211706 -0.0295647
000040 e7 f1 68 be b5 84 9e bb a8 1a 81 3d fd 36 6b bd
       -0.22748528 -0.0048375973 0.063039124 -0.057425488
000050 9e b0 84 bd d6 8b 0e be 2d 08 30 bd a5 d0 f9 3d
       -0.064789996 -0.1392053 -0.042976547 0.12197999
000060 ce 68 2a 3e ba 2c 21 bd 3a 5f 02 be f0 b3 6c 3e
       0.16641542 -0.039349295 -0.12731639 0.23115516
000070 11 69 97 3c 67 bc a6 be 9a a3 d9 bd 10 ab c8 bd
       0.018482717 -0.32565615 -0.10626908 -0.097982526

critic.4.weight f4 [1, 32]
000000 da b0 8f 3e ec 1d b5 3c 8e 4c d4 3d a4 e1 b3 3d
       0.28064615 0.022108994 0.10366164 0.08783272
000010 fc 5e 1e 3e 9f fd 78 3e af 9a 66 3e 02 2f 6c bd
       0.15465921 0.24315499 0.22519945 -0.057662018
000020 a1 db 16 bd 07 fa 4f 3e 20 df 24 bd ea a2 87 3e
       -0.03683055 0.20310222 -0.04025185 0.2649148
000030 d4 f6 9a 3e 3b 9a 06 bd 3c 76 c1 3e 58 8c 13 bc
       0.3026644 -0.03286193 0.37785518 -0.0090056285
000040 db c1 7b 3e 0e e5 54 3d 19 1d 99 bc 49 ec c8 3c
       0.24585669 0.051976256 -0.018690633 0.024526732
000050 8b 3c 75 3c 17 ac 30 be e1 af 2c 3d 5d f2 8a bd
       0.014968048 -0.17253147 0.04215992 -0.067845084
000060 6d 41 80 bd 35 15 6d 3c 6c 89 ba 3d b4 4d 2e 3d
       -0.06262479 0.014470388 0.091082424 0.042554572
000070 b1 8b 84 3c a9 d2 e8 3d e6 09 88 3c 9b 26 49 bd
       0.016179891 0.11368305 0.016606282 -0.049109083

exp_avg f4 [32, 4]
000000 50 41 9c 3a 23 62 c4 b9 4c fc b6 3a 5f 2a 48 3a
       0.001192132 -0.0003745715 0.0013960688 0.00076357083
000010 ba 6f b5 ba 1f 95 98 39 c7 70 5f bb 68 ff 30 bb
       -0.0013842501 0.00029102803 -0.003409432 -0.0027007703
000020 2d 34 1c b9 47 5e bf 38 e6 6f f4 b9 73 f6 09 ba
       -0.00014896756 9.12515e-05 -0.00046622677 -0.0005262859
000030 67 4a 36 ba 1a 2c ca 38 06 85 d4 ba e1 a4 c3 ba
       -0.0006953836 9.640325e-05 -0.001621396 -0.0014926457
000040 c4 c3 01 ba e5 04 77 39 f5 45 31 bb dc 4a 2c bb
       -0.0004950131 0.00023557579 -0.0027049754 -0.0026289737
000050 7f a5 87 39 8d 88 ab b9 72 12 2a 3b 7d 9d 1b 3b
       0.0002587251 -0.000327174 0.0025950936 0.0023744993
000060 ee 63 69 bb 16 3c 3e 3a 9e 69 23 bc 7c e2 04 bc
       -0.0035612541 0.00072568783 -0.009973912 -0.008110639
000070 c9 08 6b ba 90 0a 0f 39 ed 65 1b bb dc 47 05 bb
       -0.00089658477 0.00013641478 -0.0023711876 -0.002033702
000080 79 64 01 3a 6b 92 f8 b9 5b f6 bf 3a 2d 72 8e 3a
       0.0004935931 -0.00047411336 0.0014645563 0.0010867767
000090 a0 a0 f9 ba ea 92 30 3a b6 d7 37 bc a1 e6 1e bc
       -0.0019045062 0.0006735759 -0.011220863 -0.009698541
0000a0 4a e6 5b 3a 81 71 57 b9 30 c6 be 3a 22 b2 75 3a
       0.0008388503 -0.00020546281 0.0014554914 0.0009372552
0000b0 d6 af 8d bb 1a 70 16 3b 60 4b a9 bc e8 04 94 bc
       -0.00432394 0.0022955001 -0.020665824 -0.018068746
0000c0 98 76 9f 39 37 57 c0 b9 76 59 e6 3a 8c fb b9 3a
       0.00030415202 -0.00036686074 0.0017574269 0.0014189347
0000d0 da d1 ef 3a 91 de 20 ba f7 a5 ad 3b 38 03 81 3b
       0.0018296794 -0.00061366806 0.0052993256 0.0039371513
0000e0 2f 82 f4 38 4e b1 3a 38 0c e9 3d bb 9b 91 63 bb
       0.00011659075 4.4510984e-05 -0.0028978018 -0.0034724239
0000f0 54 59 f8 ba e8 78 8f 38 53 fa b3 bb 59 b8 97 bb
       -0.001894752 6.841292e-05 -0.0054924875 -0.0046301303
000100 a9 59 92 b9 55 61 6f 38 42 65 93 b9 12 d0 8c b9
       -0.00027914092 5.7072688e-05 -0.00028113468 -0.00026857905
000110 fd 73 59 3a 91 84 93 b8 81 41 7e 3a fb c0 b1 39
       0.00082951767 -7.034199e-05 0.0009699092 0.00033903852
000120 9d 6b 51 bb 29 56 41 bb e2 11 eb 3b 8c 6f d3 3b
       -0.0031955012 -0.0029500818 0.0071737627 0.0064525064
000130 15 4b 2d 3a dd 8a 01 ba 5e 41 07 3b d2 dc c0 3a
       0.00066106144 -0.0004941652 0.0020638327 0.0014714247
000140 11 ee 91 b8 5f d7 56 39 08 7c 2f bb 0e 19 1b bb
       -6.958482e-05 0.00020488862 -0.002677681 -0.0023666057
000150 75 b6 88 39 b4 35 a9 38 40 8e d0 b9 9a 61 43 ba
       0.00026075882 8.068551e-05 -0.00039778836 -0.00074532034
000160 27 b6 ab 39 21 3c 7c b9 70 4f 04 3b 51 73 e4 3a
       0.00032751376 -0.00024054993 0.002018895 0.0017429386
000170 dd a9 38 ba 98 df 6b 3a 57 f9 8e bb 5f e8 7e bb
       -0.00070443546 0.00089978566 -0.0043632197 -0.0038895828
000180 02 44 1f 39 46 4b e6 b8 5b 76 6f 3a 2d da 2f 3a
       0.00015188757 -0.000109812754 0.0009134763 0.0006708231
000190 9f 4c 48 bb ee a0 cf 3a 4d 59 39 bc 08 4c 16 bc
       -0.0030563248 0.0015840807 -0.011312795 -0.009173401
0001a0 3d 9f 52 bb 32 bc 57 3b ed 10 9a bc ba 8c 84 bc
       -0.003213837 0.003291857 -0.018806899 -0.016180385
0001b0 d1 ed b4 3a 48 e1 cf b8 de 4b 28 3b 29 5a bf 3a
       0.0013803785 -9.912491e-05 0.0025679986 0.0014599013
0001c0 d1 b8 e0 3a 5a a9 f5 3a 25 1b c7 bc b0 2f b4 bc
       0.0017144923 0.0018742487 -0.024304936 -0.021995395
0001d0 73 d1 b9 ba dd cc 96 39 52 e0 ae bb 87 9f a0 bb
       -0.0014176801 0.00028762865 -0.0053367997 -0.0049018296
0001e0 a3 12 9a bb 8a d8 e0 3a c2 90 13 bd ca 6d 03 bd
       -0.0047019287 0.0017154377 -0.036026724 -0.032087125
0001f0 38 84 d3 b9 7b 2d dd b8 08 b0 be ba e1 d5 c8 ba
       -0.00040343567 -0.000105465726 -0.0014548311 -0.001532253

exp_avg_sq f4 [32, 4]
000000 07 01 10 37 40 32 81 36 f0 3f 86 37 83 98 64 37
       8.583308e-06 3.8503495e-06 1.6003818e-05 1.3625368e-05
000010 6e ed ab 37 a2 17 bc 37 99 f3 e0 38 69 c4 86 38
       2.049535e-05 2.2422351e-05 0.00010726526 6.426202e-05
000020 c3 f7 fa 36 07 5d 24 35 89 f6 77 37 45 e4 87 36
       7.479424e-06 6.1230133e-07 1.4779748e-05 4.0498876e-06
000030 bd 71 74 37 4e 5d 4f 36 3f 07 a0 37 8f d4 9a 37
       1.4570015e-05 3.0899714e-06 1.907686e-05 1.845721e-05
000040 25 81 f3 36 b1 7a 53 36 66 5c 0d 38 84 f1 4a 37
       7.2569987e-06 3.1512866e-06 3.3703072e-05 1.20963705e-05
000050 f4 57 98 36 37 df 1f 37 1e 95 41 37 62 d4 b5 37
       4.540192e-06 9.52911e-06 1.15384155e-05 2.167578e-05
000060 6f 7a 45 38 1c bb 29 38 b1 6a 90 39 f0 7c 55 39
       4.7082485e-05 4.0467e-05 0.00027545312 0.00020359806
000070 3c b3 85 37 a0 cc ce 36 80 7e 70 38 67 51 02 38
       1.5938298e-05 6.1631e-06 5.733827e-05 3.1070227e-05
000080 ed 1d ad 37 5b 17 bb 36 3a 9a 3a 38 4c 96 e2 37
       2.0637142e-05 5.575753e-06 4.448949e-05 2.7011287e-05
000090 38 92 8a 39 99 cb 27 37 43 2d 17 3a f9 1e 11 39
       0.00026430353 1.0001379e-05 0.00057669374 0.00013839816
0000a0 8f c7 9f 37 b0 ff 3f 36 26 73 b9 38 fd 80 ba 37
       1.9047204e-05 2.8610048e-06 8.8429355e-05 2.2232993e-05
0000b0 2a 9d 27 39 be 84 27 38 a4 4e 67 3a 2d 7f b0 39
       0.00015984909 3.993953e-05 0.0008823669 0.0003366409
0000c0 23 20 20 35 a5 4c d0 34 61 10 1c 36 3f 55 37 36
       5.965141e-07 3.8798785e-07 2.3255345e-06 2.7318745e-06
0000d0 b1 aa 85 38 74 58 91 37 be 99 9f 39 49 88 0e 39
       6.373728e-05 1.7326536e-05 0.0003044139 0.00013592945
0000e0 c9 77 02 38 41 0b ab 36 67 df f3 38 ca f8 ef 37
       3.1105974e-05 5.0975073e-06 0.00011628755 2.8606872e-05
0000f0 04 f5 91 38 65 8f 39 36 e9 2a fa 38 aa 6f d3 37
       6.9597765e-05 2.7650615e-06 0.000119289216 2.5205158e-05
000100 00 b0 dd 36 ce b2 b6 36 66 6d 6d 37 d7 a7 48 37
       6.6068023e-06 5.4448383e-06 1.4151772e-05 1.1960007e-05
000110 1d 21 a9 37 57 41 df 36 80 e1 9b 38 5d 62 fd 37
       2.016179e-05 6.6535245e-06 7.4329786e-05 3.0205754e-05
000120 d1 b3 68 38 54 f3 db 36 a1 15 b7 38 bb f7 87 38
       5.5480577e-05 6.5550357e-06 8.730149e-05 6.483445e-05
000130 2d 80 07 37 18 7e 6e 35 2b 2f a6 37 66 ed 10 37
       8.07647e-06 8.88454e-07 1.9810706e-05 8.6383425e-06
000140 0a ab d7 37 96 2b 01 37 0f 88 31 38 04 05 02 38
       2.5709644e-05 7.699147e-06 4.2326803e-05 3.0999086e-05
000150 0e c9 c1 35 52 ad 7c 36 79 7f 93 36 9e 05 12 37
       1.4438135e-06 3.7651812e-06 4.395781e-06 8.703586e-06
000160 95 d0 c7 35 cb 8e 0a 35 2d 5c 92 36 d6 71 37 36
       1.4887361e-06 5.16168e-07 4.3618697e-06 2.7335386e-06
000170 0d 94 06 38 a1 d6 50 37 10 10 06 39 4f d5 b7 38
       3.2085973e-05 1.2447738e-05 0.0001278522 8.765852e-05
000180 cb d0 ee 37 d5 3c 23 37 0e 75 aa 38 52 f4 5c 38
       2.8469038e-05 9.729721e-06 8.128035e-05 5.267963e-05
000190 f2 a4 e4 38 60 1a c4 37 83 37 bb 39 9d 3e 37 39
       0.00010902611 2.3377303e-05 0.0003570878 0.00017475565
0001a0 a0 f5 84 39 0e ad 9f 38 dc 2f 99 3a cf 6c 20 3a
       0.00025360007 7.613945e-05 0.0011687237 0.00061197294
0001b0 c3 72 15 38 bf 1a 19 36 a0 a7 f9 37 7a 8b 2c 37
       3.563125e-05 2.2814345e-06 2.976117e-05 1.0284473e-05
0001c0 11 f8 c2 3a 23 72 4a 38 37 55 85 3b 7f 5c 7c 3a
       0.0014874955 4.826685e-05 0.0040689963 0.000962682
0001d0 e8 ce 6b 37 8d 81 c4 36 1c 36 8d 38 09 06 df 37
       1.4055266e-05 5.856337e-06 6.7334826e-05 2.6586482e-05
0001e0 fc f0 4d 3b 45 40 8f 38 a0 f6 d7 3b c4 fb b6 3a
       0.0031424155 6.8307425e-05 0.0065906793 0.001396053
0001f0 50 b8 23 38 d6 92 09 37 d4 9b b5 38 26 47 56 38
       3.9033883e-05 8.200024e-06 8.659778e-05 5.1087838e-05

exp_avg f4 [32]
000000 2e 51 f4 39 de 0b 5a 3a ee 77 07 ba bb 87 11 b9
       0.0004659979 0.00083178084 -0.0005167712 -0.00013878841
000010 93 44 44 3a 82 55 b0 b9 b6 e6 4a 3b 4e cf 28 3a
       0.0007487025 -0.00033633044 0.0030960268 0.0006439582
000020 59 1c ac 39 46 40 3a 3b 57 5d ad b8 5c 4f a9 3b
       0.00032827517 0.0028419658 -8.266669e-05 0.005166931
000030 fb 01 5a 39 99 35 ba ba f0 97 19 3b 24 e6 13 3b
       0.00020790838 -0.0014206647 0.002343651 0.0022567594
000040 b1 95 1f ba 56 1c e7 b7 ac 08 08 3b e9 9a 1f 3a
       -0.00060876744 -2.755054e-05 0.0020757122 0.0006088452
000050 ca 6b a0 39 0b 5b 53 b8 25 d7 22 ba 6f fa 96 b9
       0.00030597887 -5.039111e-05 -0.00062118686 -0.00028796817
000060 6c fb 18 b9 91 19 ed 3a 71 96 61 3a 1d 7f 11 b9
       -0.00014589512 0.0018089284 0.00086054864 -0.00013875631
000070 a9 38 5c 3b 9e de 09 3b 74 ed 1c 3c 85 78 85 3a
       0.0033603108 0.0021037231 0.009578098 0.0010183012

exp_avg_sq f4 [32]
000000 3b c4 df 36 b5 54 ab 37 f9 c1 4c 36 84 94 b6 36
       6.668762e-06 2.0424233e-05 3.0511276e-06 5.441312e-06
000010 ad 8f 32 37 b5 48 93 36 2d ac 88 38 79 5e 37 37
       1.0643079e-05 4.3894056e-06 6.5170556e-05 1.0929646e-05
000020 a7 0f 36 37 dd 03 52 39 d3 67 69 37 90 6b 89 39
       1.085169e-05 0.000200286 1.3912056e-05 0.00026210817
000030 98 9d 02 35 b9 db 5a 38 4b 25 44 38 24 66 48 38
       4.8658103e-07 5.2179883e-05 4.6764773e-05 4.777884e-05
000040 c9 7e 0b 36 04 0b 57 37 57 fa 85 38 c9 31 75 36
       2.0786413e-06 1.2817563e-05 6.3885636e-05 3.6536824e-06
000050 b9 93 5c 37 54 fd 65 35 0c 80 7c 35 2f 3d f3 37
       1.3147416e-05 8.567779e-07 9.406365e-07 2.8996348e-05
000060 4e 82 82 37 d7 63 ac 38 85 c5 9e 39 73 24 19 37
       1.5557885e-05 8.220196e-05 0.00030283272 9.127997e-06
000070 a3 2b be 3a 56 88 bd 37 45 3f 1c 3b 85 72 d6 37
       0.0014508854 2.2594042e-05 0.0023841423 2.5564115e-05

exp_avg f4 [32, 32]
000000 1d 80 d9 b6 3f cc f3 37 e5 e3 10 38 eb f7 84 38
       -6.4820183e-06 2.9062967e-05 3.454452e-05 6.340429e-05
000010 f6 02 47 b7 8a f1 a1 36 41 0f b6 38 a3 d6 f3 37
       -1.1862014e-05 4.8262928e-06 8.6812775e-05 2.9067805e-05
000020 55 9a f1 b7 50 2d 9e 35 06 0c d9 b7 b7 c7 82 38
       -2.8801305e-05 1.1785105e-06 -2.5874015e-05 6.236083e-05
000030 61 b6 9a b7 64 62 71 38 83 f1 a5 b8 90 da c8 38
       -1.8443157e-05 5.755051e-05 -7.912798e-05 9.5774536e-05
000040 c3 86 18 38 2e 96 b1 b6 9c 96 d6 b8 ce 50 cc b8
       3.636513e-05 -5.2924943e-06 -0.000102323684 -9.742529e-05
000050 32 bf 83 38 ba 75 20 38 7b 1e 51 b7 69 64 65 b8
       6.28218e-05 3.8256614e-05 -1.24644675e-05 -5.469137e-05
000060 99 bd 03 b8 ca 84 0f b8 67 10 d5 b8 37 ae 6f 37
       -3.140941e-05 -3.4217526e-05 -0.00010159687 1.4286073e-05
000070 d5 e8 51 b7 82 14 91 38 d1 e5 14 b7 f3 5b ff 38
       -1.2511581e-05 6.917959e-05 -8.874996e-06 0.000121764744
000080 48 8c 7a 37 4c 75 d8 b8 2b c9 01 b9 71 3c 68 b9
       1.4933823e-05 -0.00010321531 -0.0001237734 -0.0002214776
000090 73 f8 a3 37 1e 2f c4 36 9b 7f a7 b9 7c a4 cb b8
       1.9546807e-05 5.8467404e-06 -0.00031947796 -9.710432e-05
0000a0 d8 91 e1 38 52 3c c7 b7 c3 86 c1 38 d8 bc 87 b9
       0.000107560016 -2.3750737e-05 9.2280585e-05 -0.00025889906
0000b0 24 f3 8e 38 a8 28 66 b9 32 d3 7b 39 c9 dc c0 b9
       6.816376e-05 -0.00021949655 0.00024015902 -0.00036785592
0000c0 7e 80 00 b9 c2 02 6e 37 31 a2 d5 39 dd a7 bc 39
       -0.00012254898 1.4186548e-05 0.00040747368 0.00035983222
0000d0 57 e3 6f b9 d5 4c 17 b9 7d ad 3c 38 18 44 73 39
       -0.00022877507 -0.00014429104 4.4984266e-05 0.00023199653
0000e0 5b 4b 04 39 7c b4 13 39 56 cb cf 39 ee a8 a7 b8
       0.00012616573 0.00014086248 0.00039633614 -7.994646e-05
0000f0 4f df 64 b4 53 fa 8e b9 1c 9d 91 b7 0b c3 ef b9
       -2.1315394e-07 -0.00027270857 -1.7358507e-05 -0.0004573095
000100 b5 8e b1 b8 1c 99 e2 39 0e 07 0f 3a 42 9b 8f 3a
       -8.466599e-05 0.00043220154 0.00054560683 0.0010956305
000110 89 c9 8d b9 01 00 29 39 d3 82 b8 3a 9f 26 df 39
       -0.0002704377 0.00016117097 0.0014077075 0.0004256265
000120 c9 92 db b9 38 10 92 b8 a8 fc b2 b9 e8 bc 83 3a
       -0.00041880299 -6.9648435e-05 -0.0003413905 0.0010050805
000130 eb 00 9d b9 6c ae 85 3a 0a 9e ba ba f2 72 d0 3a
       -0.00029946057 0.0010199076 -0.0014237773 0.0015903397
000140 92 d1 22 3a 73 11 2b b9 9e 09 d5 ba b4 7e d2 ba
       0.0006211038 -0.00016314331 -0.0016253476 -0.0016059489
000150 5a 4c 94 3a f3 44 25 3a dd 6f 8d b9 fb 0b 6f ba
       0.0011314258 0.0006304525 -0.0002697696 -0.00091189117
000160 0d 32 1a ba bb 21 2c ba fc db e0 ba 1e d4 40 39
       -0.0005882092 -0.00065663055 -0.0017155404 0.00018389567
000170 f2 30 ab b9 60 6c 8c 3a b7 75 9c b9 5c f9 05 3b
       -0.0003265213 0.0010713451 -0.00029842343 0.002044282
000180 2b 75 2f 37 c9 f6 01 b8 f3 19 0e b8 65 36 64 b8
       1.0458093e-05 -3.0985833e-05 -3.3879605e-05 -5.4410095e-05
000190 ef 75 9a 37 b5 c8 29 b7 85 fc 8b b8 9d e6 16 b8
       1.8413148e-05 -1.0119916e-05 -6.675072e-05 -3.5977562e-05
0001a0 3a 49 e0 37 ba 0a 63 b6 66 8b 00 38 f5 e0 de b7
       2.673698e-05 -3.383188e-06 3.0647403e-05 -2.6569216e-05
0001b0 7c 32 66 37 80 46 23 b8 27 8f bd 38 ad 92 8e b8
       1.3720823e-05 -3.8927887e-05 9.0388865e-05 -6.798408e-05
0001c0 ae aa 16 b8 fb b9 8a 35 87 7e 87 38 e1 e1 a3 38
       -3.5921745e-05 1.0335929e-06 6.460869e-05 7.814519e-05
0001d0 50 4b 41 b8 5d 8b 01 b8 a5 e3 35 b5 53 6a eb 37
       -4.6084926e-05 -3.088579e-05 -6.775902e-07 2.8063694e-05
0001e0 26 2b 26 37 5f 21 1d 37 da 1c a2 38 dc 50 cf 36
       9.904417e-06 9.365699e-06 7.730136e-05 6.178494e-06
0001f0 97 e9 f6 36 f9 a1 4b b8 ba ce 40 37 4a 3c b9 b8
       7.3585647e-06 -4.854982e-05 1.1492224e-05 -8.832717e-05
000200 61 b4 5d b9 05 20 77 3a 9a 81 85 3a 12 37 cc 3a
       -0.00021143399 0.00094270735 0.0010185719 0.0015580377
000210 94 7f 16 b9 2a 73 cb b9 59 fa 4b 3b 04 2b 88 3a
       -0.00014352641 -0.0003880498 0.003112456 0.0010388796
000220 a2 e5 88 ba 49 b2 1c 37 cf 69 72 ba 0c f3 17 3b
       -0.0010444412 9.339835e-06 -0.0009247334 0.0023185639
000230 7c 08 15 ba 4f b0 e0 3a d3 69 e6 ba 94 7e 57 3b
       -0.0005685163 0.0017142388 -0.0017579145 0.0032881843
000240 26 b4 06 3a 7b 47 20 38 53 46 69 bb 57 ff 3b bb
       0.00051385385 3.8213544e-05 -0.0035594895 -0.002868613
000250 0e 69 c6 3a ff 72 b1 3a a6 cc 21 ba 57 15 00 bb
       0.001513751 0.00135383 -0.00061721576 -0.001954397
000260 b2 ae a2 ba d5 02 97 ba 2b 6d 44 bb b1 3c 87 3a
       -0.0012411682 -0.001152123 -0.0029972296 0.001031777
000270 ff c2 4b ba 63 81 27 3b d5 79 73 b9 e0 ba 8d 3b
       -0.0007772892 0.0025559298 -0.00023219672 0.0043252558
000280 7b 66 b6 35 8a 2b d3 b6 54 c4 11 b7 93 8b b2 b7
       1.3589882e-06 -6.2933586e-06 -8.688385e-06 -2.1284248e-05
000290 a6 ac 00 36 48 70 65 35 28 3b 19 b8 ed 72 9c b6
       1.917398e-06 8.547254e-07 -3.6533136e-05 -4.6625414e-06
0002a0 45 2c 28 37 55 00 93 36 59 e0 a5 36 46 bd 1d b8
       1.0023888e-05 4.38098e-06 4.9435007e-06 -3.760799e-05
0002b0 52 2b 08 37 e6 14 d7 b7 8b 94 b0 37 55 7e 2a b8
       8.116318e-06 -2.5639729e-05 2.1050006e-05 -4.0648814e-05
0002c0 45 6a 0f b7 0c e9 73 36 cb 92 58 38 f1 7e 22 38
       -8.548207e-06 3.6345473e-06 5.1635125e-05 3.8742033e-05
0002d0 71 44 d6 b7 99 a6 7a b7 81 7f 5b 37 9f 12 f7 37
       -2.5542658e-05 -1.493995e-05 1.3083104e-05 2.9453366e-05
0002e0 eb 05 b7 37 4c cf bf 37 2b 80 28 38 32 33 86 b7
       2.1818056e-05 2.2865504e-05 4.0173687e-05 -1.5997884e-05
0002f0 3d d0 58 37 17 34 fa b7 34 7c f6 36 cf 9a 5d b8
       1.29230875e-05 -2.9826579e-05 7.3458305e-06 -5.2834683e-05
000300 03 5c c3 b8 21 b0 89 ba 62 63 c4 ba 25 22 3b bb
       -9.315463e-05 -0.0010504761 -0.0014983232 -0.0028554287
000310 85 4b 5b 3a b1 d2 1d ba a6 26 29 bb 48 62 8d ba
       0.00083654403 -0.000602047 -0.002581039 -0.0010786736
000320 05 fb 40 3a 5a 1a ea b8 07 9d 3d 3a 50 8e 9f ba
       0.00073616236 -0.00011162898 0.0007233177 -0.001217315
000330 da 51 0a 3a 4b f6 26 bb 93 fe 6c 3b d6 10 70 bb
       0.0005276479 -0.0025476392 0.003616248 -0.0036631129
000340 79 66 eb ba 01 f2 ed 39 20 f6 60 3b ba a5 69 3b
       -0.0017959616 0.0004538447 0.003432639 0.003565176
000350 52 dc 39 bb de 21 c9 ba 11 90 7c 39 13 47 03 3b
       -0.002836008 -0.0015345176 0.00024086262 0.0020031377
000360 e7 c7 8a 3a 09 97 ba 3a 73 64 8f 3b a5 4c 57 39
       0.001058814 0.0014235686 0.004375988 0.0002053255
000370 03 99 8b 39 30 29 01 bb 12 6a 5b 39 1d f7 93 bb
       0.0002662615 -0.0019708388 0.00020924982 -0.004515542
000380 93 83 70 3a fc 4d 26 bb 54 37 3b bb f4 56 9d bb
       0.00091748795 -0.0025376072 -0.0028566914 -0.0048016254
000390 89 83 a4 3a 9e 61 a4 b9 03 c2 f8 bb 71 7d 45 bb
       0.0012551408 -0.00031353248 -0.0075914874 -0.0030134583
0003a0 99 55 38 3b d0 d2 7f 39 c6 50 34 3b 26 51 a2 bb
       0.0028127192 0.00024397229 0.0027513965 -0.0049535213
0003b0 1f fb cb 3a a5 ae 8d bb 03 c4 eb 3b e8 22 fd bb
       0.0015562511 -0.0043237978 0.0071949973 -0.0077251084
0003c0 1b 37 21 bb 32 c9 fd b8 3f da 0f 3c 0c 61 06 3c
       -0.0024599496 -0.00012101456 0.008780061 0.008201849
0003d0 3a 93 91 bb 66 a0 5e bb 8a c1 a0 3a 69 b8 77 3b
       -0.0044425996 -0.0033970117 0.001226471 0.0037799126
0003e0 d2 3a 21 3b df ed 0a 3b a2 2b 00 3c b4 b7 b4 ba
       0.002460171 0.002119891 0.007822903 -0.0013787658
0003f0 8e 9b 24 3b f3 d9 bf bb 92 9b c9 3a 49 ac 27 bc
       0.0025117132 -0.005854839 0.0015381447 -0.010233947
