logs/rsl_rl/cartpole/2024-08-04_20-20-52/model_0.pt (torch, 45242 bytes, 30 tensors)

actor.0.weight f4 [32, 4]
000000 0e 48 75 3e cb 70 ec 3e 58 a4 76 3e 1b 51 e7 bd
       0.23953268 0.46179804 0.2408613 -0.112947665
000010 16 1d ec 3d 5a 87 47 be 33 e6 b1 be 07 41 36 bd
       0.11528985 -0.19485226 -0.3474594 -0.04449561
000020 7e e1 84 be 26 e2 f1 bd f7 fc c6 be 81 f0 c0 be
       -0.25953287 -0.118107125 -0.38864872 -0.3768349
000030 63 31 de bb 47 e0 b4 3d 07 73 e3 be 77 db aa be
       -0.0067807897 0.0883184 -0.44423696 -0.33370563
000040 50 7e 8a be 29 0b ae bd 24 50 23 be 3f 81 a7 3e
       -0.27049494 -0.084982224 -0.1594854 0.32715794
000050 57 a9 df 3e 80 cc 43 3d 62 b4 fa 3d c6 15 bc be
       0.43683884 0.04780245 0.122414365 -0.36735362
000060 44 74 ad be 9e 00 e5 be b3 22 f4 be 9b 8a 71 bd
       -0.33877766 -0.44727033 -0.47682723 -0.058970075
000070 29 d2 50 3d bc 20 0a 3d 81 88 98 3d f0 70 eb be
       0.050981674 0.033722624 0.07447911 -0.45984602
000080 05 b3 0a be 17 af 7f 3d 1b 1c 8e bd f1 0e ce bd
       -0.13544853 0.062422838 -0.069389544 -0.100614436
000090 8e 1d 6e 3e 7b d6 cd 3e c1 ec 96 3d 84 24 b1 3d
       0.23253462 0.40202698 0.07369376 0.08649543
0000a0 e8 da cd 3c 46 04 97 3d a7 e1 dd bd 0b c3 b9 3d
       0.025128797 0.07373862 -0.108340554 0.090704046
0000b0 9a 7c dc be 69 4c cc be 62 5f e4 be d5 ef b3 3e
       -0.43063813 -0.39902046 -0.4460402 0.35143915
0000c0 37 7a ba bd 9b 2d 84 3e 2d fa 21 be cb da 02 3e
       -0.09105342 0.25816044 -0.1581809 0.12778775
0000d0 9f cd d1 3d 96 61 b4 3e e8 9a 52 be b8 98 9a bc
       0.10244297 0.35230702 -0.20566905 -0.01887165
0000e0 97 e7 e5 be 19 99 a5 3e ad 1f 26 3e 0f 18 d9 3e
       -0.44903252 0.32343367 0.16223021 0.42401168
0000f0 6e 0b df 3d 2e 6a 00 3f 03 3a e9 be 92 60 f0 bd
       0.10890852 0.5016202 -0.45552072 -0.11737169
000100 35 4b da 3e 42 0b b5 bc bb 4f 7b be 05 49 2e be
       0.42635503 -0.022100095 -0.24542134 -0.17020042
000110 15 6a b9 be 1b d1 38 3e 12 c5 99 3e bf c9 e2 be
       -0.36213747 0.18048517 0.30033165 -0.44294545
000120 64 23 20 3e de 8d be 3e 32 0a d7 3e 72 42 25 3e
       0.156385 0.3721761 0.41999966 0.16138628
000130 de 70 7a 3d 38 87 86 bc 06 f8 88 3e 1f ae 97 3e
       0.061142795 -0.0164219 0.26751727 0.2962503
000140 e9 d0 ea 3e a6 ab 8a 3e ec c4 b2 be 60 9e 14 bd
       0.4586251 0.27084082 -0.34915864 -0.03628385
000150 52 a1 98 3e 57 58 b2 3e 98 40 80 3e f1 fa 81 be
       0.29810578 0.34833023 0.2504928 -0.25386766
000160 98 13 d9 3d 18 33 8b be 5e b0 d7 bd a1 3f b7 be
       0.1059944 -0.2718742 -0.10531686 -0.35790733
000170 9f ff 15 3e 36 70 47 3e 69 39 ed 3e dc e3 e4 be
       0.14648293 0.19476399 0.46332863 -0.44705093
000180 c3 6f da 3e e7 48 cc bd ad 29 06 3e 72 a1 ae 3b
       0.42663392 -0.099748425 0.13101836 0.0053293044
000190 f2 a7 f3 3c f8 c5 1b be ba 53 47 3e a0 93 de be
       0.029743169 -0.15212238 0.19465533 -0.43472004
0001a0 6c 2e 9b be 34 41 f4 be f2 f9 2a 3e 98 65 e1 3e
       -0.30308855 -0.47705996 0.16696909 0.44022822
0001b0 95 27 db be c6 f0 78 bc 0f 7a 0d 3b 43 1d 6a be
       -0.42803636 -0.015194124 0.0021587645 -0.22862725
0001c0 17 bb 49 3e 3f 1c 70 3d 24 ad 54 be 69 1e 76 3e
       0.19700275 0.058620688 -0.20769173 0.24035038
0001d0 5a 36 64 be 0c 62 0b be 18 09 c5 be 39 48 31 3e
       -0.22286358 -0.1361162 -0.384835 0.17312707
0001e0 14 03 3f 3d 99 40 02 3f 5b 46 4e 3e b4 f1 18 3e
       0.046633795 0.5087982 0.20144026 0.14935952
0001f0 ed b4 8c be 98 52 b6 3e 3a ce e6 be 0b 37 20 bd
       -0.27481785 0.3560989 -0.45079213 -0.039114993

actor.0.bias f4 [32]
000000 e0 51 c7 3e 5d f9 09 be 28 92 99 bd 36 7c 96 3d
       0.38929653 -0.13474031 -0.0749858 0.0734791
000010 ac 17 a9 3d 3d 09 d1 3e f4 4d 82 be bf 35 02 bf
       0.08256468 0.4082736 -0.254501 -0.5086326
000020 22 f3 e9 3e 03 d0 33 be dd b4 ec 3e 7e f4 7e 3e
       0.45693308 -0.17559819 0.46231738 0.24897954
000030 fb 04 89 bd f4 ef 13 3e b4 5f 00 3e ea fc 24 be
       -0.06690403 0.14447004 0.12536508 -0.16112104
000040 0c a0 38 3e a3 e6 09 be 6e f8 bf be 40 30 36 3e
       0.18029803 -0.13466887 -0.37494224 0.17791843
000050 a7 3a 59 3e 1b 53 61 be a3 97 b4 bd c0 0f 24 3e
       0.2121378 -0.22004358 -0.08817985 0.16021633
000060 bf 5d f8 be 3b c6 dd be 86 32 0b be 48 34 4d 3e
       -0.48509023 -0.433153 -0.13593492 0.20039475
000070 98 88 d5 3d 6d 21 fb bd 44 0b 4d 3e 71 2c 8d be
       0.10426444 -0.12262235 0.20023829 -0.2757297

actor.2.weight f4 [32, 32]
000000 f7 26 27 3e 2e 96 fd bd c2 14 ee 3d b9 70 bd 3d
       0.16323458 -0.1238216 0.11625053 0.09250016
000010 6e 5f e2 3d 48 cc b0 bd 4d a5 8b bd 32 01 08 ba
       0.11053358 -0.086327136 -0.06818638 -0.00051881664
000020 d1 1c a0 bd 2c e3 ce bd 04 eb 9e bc ed f6 f8 3d
       -0.07817996 -0.10101923 -0.019399174 0.12156472
000030 5b 9c 0a 3e 3a af ce bc 9a 40 32 3d 57 a3 0e be
       0.13536207 -0.025230039 0.04351864 -0.13929497
000040 56 ce 8d bd 22 b3 31 be ed 73 91 3d 65 db 5e bd
       -0.06924121 -0.1735349 0.07102189 -0.05440845
000050 7a be cf 3d a2 00 4c bc 05 36 e2 bd 4c a7 1a bb
       0.101437524 -0.012451323 -0.1104546 -0.0023598252
000060 dc 8a 00 be 78 9f c0 3d 1a 57 15 3e 94 58 02 bc
       -0.1255297 0.09405416 0.14584008 -0.007955689
000070 f2 9b 96 3d f9 00 34 3d 76 dd ac 3d d3 9c 73 bd
       0.07353963 0.04394624 0.08440678 -0.05947573
000080 f6 0b a6 bd fa 3c 5c 3c 77 bb 8d bd b6 3b f3 bd
       -0.0810775 0.013442272 -0.06920522 -0.11876623
000090 70 42 0a be 43 57 98 bd 99 ca cd 3d 7f fd eb 3b
       -0.13501906 -0.07438519 0.10048408 0.00720185
0000a0 0e ac 1e 3e 93 08 dc 3d 61 c9 7e bd 7d fb fa bd
       0.15495321 0.10743823 -0.06220377 -0.12254999
0000b0 a3 9a c2 bd da 2f f9 bd ae fc 1e be 9c 9b de bb
       -0.09502151 -0.1216733 -0.15526077 -0.0067934524
0000c0 21 ee bb bc 22 dc 13 3e 65 e5 18 3e 9f 6c b5 bb
       -0.022940697 0.14439443 0.14931257 -0.0055366303
0000d0 3f 7b 33 be 53 e7 c0 3b 27 63 08 be 66 af 44 3a
       -0.17527483 0.005886951 -0.13319074 0.0007502943
0000e0 e8 31 50 3c 70 71 15 3e 67 37 24 3e 81 8d 2e 3d
       0.012707211 0.14594054 0.1603676 0.042615417
0000f0 10 5a fd 3d 3e 57 ac bd 51 b4 6a 3d 64 ef 16 be
       0.12370694 -0.084150776 0.05730087 -0.14739758
000100 35 3a 1a 3e 43 41 88 3c 46 71 bd 3d fd ab 42 bd
       0.15061267 0.016632682 0.09250121 -0.047527302
000110 bd 1d 92 bd 3b d1 b5 3d 16 28 3a 3d 37 94 12 be
       -0.071345784 0.08877798 0.045448385 -0.14314352
000120 c5 00 57 bd 5b 3e 30 3d a5 3f 8a 3d a0 26 a2 bd
       -0.05249097 0.043028217 0.067504205 -0.079175234
000130 65 ad 58 3d d8 9c 14 be 40 1f 33 be 5d 8b 83 bd
       0.052899737 -0.14512956 -0.1749239 -0.06423066
000140 77 5b 29 3e 27 84 9d bb 86 3c c0 bd 23 65 11 3e
       0.16538797 -0.0048070136 -0.09386544 0.14198737
000150 d4 5a 66 3d 4a 18 5a 3d f0 38 02 bd 49 db 36 3d
       0.056238964 0.05324582 -0.03179258 0.04464272
000160 a7 65 6e bd a9 2b 6d 3d 93 be b3 3d 23 25 d3 bd
       -0.058202412 0.057902966 0.087765835 -0.10309818
000170 0a 6e 22 3e ba 23 13 bd a2 b4 ad 3d a0 a8 74 3d
       0.15862289 -0.035922743 0.084817186 0.059731126
000180 26 19 e0 bc 91 86 43 bd 7e 3e fa bd 51 a4 cd bd
       -0.027355742 -0.047735754 -0.12218951 -0.100411065
000190 f5 36 b3 3d f0 a0 2b 3e f9 e1 29 3e f0 4b 0a 3e
       0.087507166 0.16760612 0.16590108 0.1350553
0001a0 38 2e c8 bc d7 3b 16 3d dd da 94 3d b1 95 e9 3d
       -0.024436101 0.03667816 0.07268307 0.114055045
0001b0 84 2b 1f 3e 57 d6 21 3e 67 e5 e4 3d 1b 4c 8a bd
       0.15543944 0.1580442 0.111765675 -0.06752797
0001c0 8f 0a e9 3d 7f 6b 93 3d fc ff 6f 3d 50 67 3b bc
       0.11378967 0.07198238 0.058593735 -0.011438206
0001d0 0b 04 b8 3b a8 42 eb 3d ef a1 01 3d b1 a7 38 be
       0.0056157163 0.11487323 0.031648573 -0.18032719
0001e0 e3 63 35 be 5e 62 90 3d e2 67 bb 3d dc 3b 52 bd
       -0.17713885 0.07050012 0.091506734 -0.051326618
0001f0 d2 94 e7 3b 58 f0 80 bd 3f f0 db bd 8f f6 3e bd
       0.0070673013 -0.06295842 -0.10739183 -0.046621855
000200 a1 e1 b7 3c 92 f2 04 3e 0c 95 35 bd 45 8e 63 bd
       0.022446455 0.12983158 -0.044331595 -0.0555556
000210 71 6b dd bd 4a 01 16 3e 4d 1d 52 3b a7 b2 18 bd
       -0.108115084 0.14648929 0.0032060922 -0.03727975
000220 a7 33 1f be dd 84 2c be 1a f6 e7 bd d4 42 71 bd
       -0.15547048 -0.16847558 -0.11326237 -0.058901623
000230 70 22 48 3d 3c 34 14 be 6b f1 0e be 16 ed a2 3d
       0.048860967 -0.14473051 -0.13959281 0.07955377
000240 ef 67 e2 bd 2d 06 12 be bb e4 8a bd 3c ed 09 3e
       -0.1105498 -0.14260168 -0.06781908 0.13469404
000250 9a ec ea bd c5 7a ee 3d 29 8a df 3b 10 16 9e 3d
       -0.114709094 0.1164451 0.00682189 0.07719052
000260 8d 60 cf bd d6 b9 36 bc bd 4e 98 bd 12 86 99 bd
       -0.101258375 -0.011152705 -0.07436893 -0.07496275
000270 52 5d 1c bc c2 70 dc bd 61 72 10 3e 1e 60 e7 bd
       -0.009543734 -0.10763694 0.14106132 -0.1129763
000280 e7 84 ad 3d 65 0f 90 bc 9a 00 dd 3d d2 9e 0b be
       0.08472615 -0.017585466 0.1079113 -0.13634804
000290 55 1b fb 3d 70 08 61 3b f1 ad 22 bc 43 b5 28 3e
       0.122610725 0.0034337305 -0.009929166 0.16475396
0002a0 f2 e0 12 3e 93 f1 b9 37 66 d2 10 3e ae 37 60 bb
       0.14343622 2.216621e-05 0.1414276 -0.0034212875
0002b0 7d c8 eb bd 29 02 4a bd 04 1c 7c bd 40 c1 7f 3b
       -0.115128495 -0.049318466 -0.061550155 0.0039025098
0002c0 6a 69 16 3e 60 2b 17 3e 9a 78 a8 bd 75 27 16 bd
       0.1468865 0.1476264 -0.08226128 -0.036658723
0002d0 f6 2a 33 be bf ba 02 3e 36 0a 2a 3d 49 24 6b 3c
       -0.17496857 0.1276655 0.041513644 0.014351913
0002e0 37 54 69 3d 9f 7a 58 3d 03 74 60 bc 68 e4 05 3e
       0.05696508 0.052851316 -0.013699534 0.13075411
0002f0 1f 3b 29 3e 2d 1f 0c bc 2c 9d b6 bd 4d 23 8d 3d
       0.16526459 -0.008552355 -0.08916697 0.06891499
000300 d4 65 ca bd cf 03 8a bc 15 c5 92 bb 18 57 34 3e
       -0.098827034 -0.01684752 -0.0044790604 0.17611349
000310 17 d4 10 3e 52 f5 d7 3d e1 90 21 bb 22 46 ad 3b
       0.14143406 0.10544838 -0.0024653005 0.0052879015
000320 cc 12 05 3e 0a af c0 bd dd 71 04 be ef 5a 32 be
       0.12995452 -0.09408386 -0.1293406 -0.17417501
000330 a2 4d 1e 3e 93 3a 71 3d 98 19 17 3e 43 77 b0 3d
       0.15459302 0.05889375 0.14755857 0.08616497
000340 5c 0c ad 3d 93 06 41 bd c9 0e ee 3d fb f9 8a 3d
       0.08449623 -0.04712541 0.11623914 0.06785961
000350 ba d7 35 be 45 6d 24 bd 32 86 12 3e 96 d1 56 3d
       -0.17758074 -0.04014327 0.14309004 0.05244597
000360 dc a0 10 be 21 aa 0b 3e 17 70 08 bd 06 04 30 be
       -0.14123863 0.13639118 -0.033310022 -0.17189035
000370 ab b3 b1 bd fb 2a 0f 3d b5 04 9c 3c 6b 2a 2f bd
       -0.08676847 0.0349531 0.019045213 -0.042765062
000380 bf 45 03 3d 62 5b 33 3e 1d c1 eb bd fe fe 25 be
       0.032048937 0.17515329 -0.11511443 -0.16210553
000390 d0 44 10 be 1f b3 0e 3e 97 f8 c8 bd 36 a5 1b bd
       -0.1408875 0.13935517 -0.0981304 -0.037999354
0003a0 10 12 f2 bc 49 41 0a be d3 96 9c 3c 92 63 21 be
       -0.029549628 -0.13501467 0.019114887 -0.1576064
0003b0 38 e2 ac 3b 2c 10 69 3d ad 6b 23 3e 48 79 ae bc
       0.005275991 0.05690019 0.15959044 -0.021298066
0003c0 73 05 ad bd 80 b1 76 3d 88 bb e0 bc c7 dd fe 3d
       -0.08448305 0.06022787 -0.027433172 0.124446444
0003d0 09 70 8c bd 70 bb 6b 3d 42 a2 1e 3e f0 bb 90 bd
       -0.068573065 0.0575518 0.15491584 -0.07067096
0003e0 d6 7f e1 3d 8b ee 1e be 89 b2 62 bd e4 f2 eb 3d
       0.11010711 -0.15520684 -0.055346046 0.11520937
0003f0 c2 9f 98 bd d8 8b 39 3e 27 c8 84 bd 56 0d 4e bd
       -0.074523464 0.18119752 -0.064834885 -0.050305687

actor.2.bias f4 [32]
000000 f9 d5 21 be e3 aa 50 3d 75 83 13 3e fa f5 20 be
       -0.1580428 0.05094422 0.14405616 -0.15718833
000010 46 c8 d4 bc ad fd 27 3d 16 25 3d be 13 53 2c be
       -0.025974404 0.04101341 -0.18471178 -0.16828565
000020 bc 18 23 3e 7f 67 ae bc 64 94 f1 3d 11 5f e5 bd
       0.15927404 -0.021289585 0.117958814 -0.11199773
000030 05 d4 b7 3c 54 a6 f0 bd 48 ba 1e 3e e0 9d 22 3e
       0.022439966 -0.117504746 0.15500748 0.15880537
000040 be f2 2a bd a6 23 85 3c f8 74 16 be 35 12 29 3e
       -0.041735403 0.01625235 -0.14693058 0.16510852
000050 dd 35 2a 3e f5 e4 e9 bd e9 5e 9e bc 85 73 15 be
       0.1662211 -0.11420623 -0.019332366 -0.14594848
000060 48 9d 48 3d 9d f9 cb 3d 38 37 d4 3d 98 77 d9 bd
       0.04897812 0.09959719 0.10362095 -0.10618514
000070 3d 95 da bd b0 87 2e be fd d7 00 3e 76 95 07 3d
       -0.10672996 -0.17043948 0.12582393 0.03310152

actor.4.weight f4 [1, 32]
000000 72 0c 84 bd 85 ca df 3d f0 d7 cb 3d de 76 93 3b
       -0.06447686 0.109272994 0.09953296 0.004500254
000010 44 0c a3 bd 11 ae 83 3d 2e 1c 30 3e d1 0d c3 3d
       -0.07961324 0.06429685 0.1719825 0.0952412
000020 77 bd aa 3b 0e 77 82 3d da 54 03 be 6c d1 a7 3d
       0.0052105743 0.06370364 -0.12825337 0.08194241
000030 f0 16 32 3d 26 da 36 bd 58 13 d0 bd c1 53 6a 3d
       0.043478906 -0.044641636 -0.101599395 0.05720878
000040 1c f4 8c bc b4 1d e8 3d 46 cd 03 3d e5 f2 e9 3d
       -0.017206244 0.113337904 0.032178186 0.114232816
000050 14 3f b8 bd 7c cc fc bc 58 19 87 bd 6f ef 2c bd
       -0.08996406 -0.030859224 -0.06596631 -0.04222053
000060 45 1f 8e 3d da 53 38 be 1b 2a b7 3d 65 32 a5 bd
       0.06939558 -0.18000737 0.08943578 -0.080662526
000070 fa 25 5b bc 28 1a e3 3d 35 35 9c bd 3d 6a ef 3d
       -0.013375754 0.11088973 -0.07627336 0.11690185

critic.0.weight f4 [32, 4]
000000 84 9f dd bd 9e 75 cb 3d 41 7b e7 be e6 2e ca 3e
       -0.10821441 0.09934543 -0.45211223 0.39488906
000010 c2 88 4c be f9 35 99 3e f9 1f ef 3e 6e 8e 6a 3e
       -0.19974044 0.2992399 0.4670408 0.22905895
000020 a7 a1 4e be fb 39 07 3e 67 5a bf 3e c6 b7 e1 be
       -0.20178853 0.13205712 0.3737366 -0.4408552
000030 94 4c f0 be 69 1d 16 bd 7a 5c 48 be da ff f8 3b
       -0.46933424 -0.03664914 -0.19566527 0.0075988593
000040 18 3a bd 3e 03 a3 85 be 75 a2 c6 3e ea e0 f7 3e
       0.36958385 -0.2610093 0.3879582 0.48413783
000050 c3 f1 a0 be ed 2d ae 3e c4 6f d3 be 23 37 90 3e
       -0.3143445 0.34019414 -0.41296208 0.28167066
000060 10 52 6b bd 66 6f 98 be 76 bb e6 be a4 7c ed 3e
       -0.057451308 -0.2977249 -0.45064896 0.46384156
000070 ac 29 c6 3e 56 82 cd 3d 27 e3 ae be 63 c6 ce be
       0.38703668 0.10034625 -0.34157678 -0.40385732
000080 0b 2b ba bd 52 e2 25 3e 1d 99 83 3d 93 09 9b be
       -0.09090241 0.16199616 0.064256884 -0.30280742
000090 ec ce 91 3e e4 bc a9 be 4a 37 3d 3e fb 80 a3 3e
       0.2847818 -0.33151925 0.18478122 0.31934342
0000a0 ad 25 98 be 72 fd f5 be bc 82 d0 3e 16 c0 ca 3c
       -0.29716244 -0.48044926 0.40724742 0.024749797
0000b0 a1 38 de bd bf a2 e0 3d 10 37 58 3e 78 1b c0 bd
       -0.10850645 0.10968541 0.21114755 -0.09380239
0000c0 42 21 27 be 6b 10 9b be 66 64 e2 3e 55 ae aa bd
       -0.1632128 -0.30285963 0.44217223 -0.083340324
0000d0 50 0a 27 3e a2 02 cd be 5f e1 72 3e 05 e2 db 3d
       0.16312528 -0.4004107 0.23718785 0.10736469
0000e0 4b 3b 00 3f 1d 41 9a be 5e c6 78 be ca 3c fb be
       0.50090474 -0.30127802 -0.24294421 -0.49069816
0000f0 70 2c 96 bd 87 fc 22 bd e0 98 76 be 2e 56 83 3c
       -0.073326945 -0.03979161 -0.24081755 0.016032305
000100 52 12 85 be 64 79 19 3c 03 95 01 3e 59 d8 87 be
       -0.2599054 0.009367321 0.126545 -0.26532248
000110 67 04 e4 3e 60 d7 39 be f0 6d 13 3e 3a 26 36 be
       0.4453461 -0.18148565 0.14397407 -0.1778802
000120 ab 72 8f 3d 3c b6 e9 be 6e 5c d0 3e 4c 58 3d 3d
       0.07004293 -0.45646846 0.40695518 0.046226785
000130 11 95 52 3e 14 9d c7 be 6d 30 a0 3e ce a7 67 be
       0.20564677 -0.3898703 0.31286946 -0.22622606
000140 67 93 be be 1b 98 3a be 6c 8a c1 bd 2d ef b4 3e
       -0.37221834 -0.18222086 -0.0945023 0.35338727
000150 c9 43 7a be f6 58 ed 3e bb 97 b5 be b5 b1 e7 be
       -0.2443992 0.46356934 -0.35467324 -0.45252767
000160 f3 33 ff be ce 6d ae bc 2d ce 7f 3d 56 0e 79 be
       -0.49844322 -0.021292593 0.062452484 -0.24321875
000170 1a 8b 9d be f1 47 8d 3e 60 75 db 3d b8 49 45 3e
       -0.3077019 0.2759395 0.10715747 0.19266403
000180 62 85 74 3d 46 00 e0 bc 5b 49 b8 3d 5b 4d 1a bd
       0.059697516 -0.02734388 0.089983664 -0.03767143
000190 93 85 ba be 76 d7 cc bd 5b 12 8e be ee 4b 87 be
       -0.36430034 -0.100020334 -0.2774838 -0.26425117
0001a0 bf 57 c7 3d 9b a9 c0 bd 7c d4 8b 3e 26 78 d6 3e
       0.09733533 -0.0940735 0.2731055 0.4188854
0001b0 44 c1 95 3e ab fc b1 be bc d2 88 bc 16 b2 8e 3d
       0.29249012 -0.34763083 -0.016702048 0.06967561
0001c0 1c 29 ae 3d d9 4c 9f 3e ad f2 6c 3e ec 15 18 bd
       0.08503935 0.31113318 0.23139448 -0.03713028
0001d0 64 94 e2 be e6 4e 3a 3e ae b1 e3 bd 10 a4 c5 be
       -0.44253838 0.1819416 -0.11117874 -0.38601732
0001e0 fb 3a 06 3e a2 6f c1 3e 35 05 bc 3e 9f 83 aa 3d
       0.13108437 0.37780482 0.36722723 0.08325886
0001f0 bc 39 0b 3e 36 64 58 be ef a1 6f 3e 00 51 f5 be
       0.13596243 -0.21131977 0.23401617 -0.4791336

critic.0.bias f4 [32]
000000 65 2e 19 be fe c1 a3 be c9 cc cf 3e d5 cb 95 3e
       -0.14959104 -0.31983942 0.40585926 0.29257074
000010 5b 90 92 bd b3 6f 6d 3d dd 63 0e be 36 0e 56 be
       -0.0715644 0.057967853 -0.13905282 -0.20903859
000020 6b 7b 6e be f0 65 d7 3d 76 63 77 3e a3 e5 0c be
       -0.23289268 0.1051749 0.24159035 -0.13759474
000030 be 9a 64 bd ec cc 77 be 0f be ff 3d 25 56 88 be
       -0.055811636 -0.24199265 0.12487423 -0.26628223
000040 ac 1b 87 be 37 40 cd 3c 9c 31 ea 3e 6e b5 80 be
       -0.263883 0.025055034 0.45740974 -0.2513842
000050 a3 69 6a be 78 1d 6a 3d 1a 81 7a be 46 ab d2 be
       -0.2289186 0.05715701 -0.24463311 -0.41146296
000060 93 c5 cb bc da ce c7 bd b8 80 1f be c2 93 dd be
       -0.024874484 -0.09756251 -0.15576446 -0.43276793
000070 a2 10 e0 3e 95 cb 9c 3e 37 76 a4 bd eb 30 de be
       0.4376269 0.3062407 -0.0803036 -0.43396696

critic.2.weight f4 [32, 32]
000000 e8 ee 53 bd 50 dc 2d be 28 52 f2 bd f5 fa 14 be
       -0.05174151 -0.16978574 -0.11832076 -0.14548858
000010 03 c7 90 bd fb 4d 6f bd a9 0f 8c bd fd 3d a1 3c
       -0.070692085 -0.058423977 -0.068389244 0.019682879
000020 10 52 0f 3d c3 d6 aa 3c 28 12 2a 3d 5b 58 00 3d
       0.03499037 0.02085436 0.04152122 0.031334262
000030 67 b0 de bd c5 47 f1 bd c8 95 dc bd 66 3b 82 bd
       -0.1087349 -0.11781267 -0.10770756 -0.063589856
000040 2d 5c 07 3e dd 0d c8 3d be 65 20 3e 0d 1d 17 be
       0.13218756 0.09768269 0.15663812 -0.14757176
000050 15 19 be bd 60 62 d5 bd 8e 4c 1b 3e 63 1a db 3d
       -0.09282128 -0.10419154 0.15165922 0.10698392
000060 2d 0f a0 bd 80 aa 22 be 70 5a 02 be 0f 43 e2 bd
       -0.078153946 -0.15885353 -0.12729812 -0.11047947
000070 47 73 f2 bd 5c 0f 37 3d b8 f2 19 be 8c d5 1c 3e
       -0.11838394 0.044692382 -0.15033996 0.15315837
000080 93 49 57 3d 00 33 2c 3e be cf 3d bc bc e5 09 be
       0.0525604 0.1681633 -0.011585174 -0.13466543
000090 77 6d a6 bc a5 66 7c 3d 3c 2e 06 3e e3 e8 d7 3d
       -0.020315869 0.061621327 0.13103575 0.105424665
0000a0 52 59 1e 3d 8c 32 01 3d cd 09 38 be 84 39 6b 3b
       0.0386594 0.031542346 -0.17972489 0.0035892436
0000b0 68 92 db 3d da 46 90 3c 22 e9 ee ba e9 8d 26 be
       0.10721284 0.01761191 -0.0018227438 -0.16265072
0000c0 3d 04 f2 bd 31 2f 22 3e ed 5a e5 3d f7 5d ec 3d
       -0.11817215 0.15838315 0.11198983 0.1154136
0000d0 9b 23 0b be 2e dd f9 bd ce 83 1f 3e 23 31 34 bd
       -0.13587801 -0.1220039 0.15577623 -0.043992173
0000e0 9b 22 0e 3e 8c 6b 90 3d c7 22 2a 3c f4 19 25 be
       0.13880388 0.07051763 0.010384268 -0.16123182
0000f0 f9 e1 29 3b 02 d0 09 3e 9e 80 1e 3e 41 e5 1f 3d
       0.0025922044 0.13458255 0.15478751 0.039036993
000100 ba 33 6a 3d a3 33 d6 3d e3 06 e6 3d ba c1 24 3e
       0.057178237 0.10459068 0.11231782 0.16089526
000110 c3 9a db bd 0b 3c b3 bc 50 f3 c8 3d 78 e7 2a be
       -0.10722878 -0.021879217 0.09812033 -0.16689861
000120 ed 6e 93 3d 70 1b 21 be cf bd 00 be df 03 73 3b
       0.07198892 -0.15733123 -0.12572406 0.0037081165
000130 6a 34 2e 3e d7 dd ab 3d dc 0a 27 be ad 53 65 3d
       0.17012182 0.08391922 -0.16312736 0.055988003
000140 52 fb ac bd 07 2c 9a bd a4 dc 0c 3e 22 73 11 3e
       -0.08446373 -0.07527929 0.13756043 0.14204076
000150 41 c7 ca bd 03 87 19 be 06 70 31 be 85 9c ff bd
       -0.09901286 -0.14992909 -0.1732789 -0.124810256
000160 8d c8 26 be b6 e6 5f 3d b3 e9 06 bc 16 16 1f bc
       -0.16287442 0.054663382 -0.008234429 -0.009709856
000170 e7 e6 c6 bd 86 cb d6 3d 8a 98 06 be 30 a4 10 bd
       -0.0971201 0.10488038 -0.13144127 -0.03531283
000180 0c e8 c5 3d 77 14 63 3b 11 5d d0 3d 2a 5f 5d 3d
       0.096634 0.003464965 0.10174001 0.054045834
000190 cc c9 4f 3c 19 82 05 be 65 00 fb bd 42 83 aa 3d
       0.0126823895 -0.1303791 -0.122559346 0.08325817
0001a0 11 d3 33 3e 2d 62 bf bd c3 94 5f bd 52 39 b0 3c
       0.17560984 -0.093448974 -0.05458523 0.021511707
0001b0 de 6b 26 be 4b 26 21 bd d7 8a a7 3d 8e d2 11 ba
       -0.16252086 -0.03934316 0.081807785 -0.0005562686
0001c0 ca 23 8c 3d f9 5b ea bd 6d 80 16 3c d9 c8 3a 3d
       0.06842764 -0.11443324 0.0091858925 0.0456017
0001d0 e6 bf ce 3d de 8c 33 3e c4 1c 74 bc 57 46 b4 3d
       0.100951955 0.17534205 -0.014899436 0.08802479
0001e0 70 51 00 bd 43 8c 36 3d f8 0b e5 bd 0d 91 2e 3e
       -0.031327665 0.044567358 -0.111839235 0.1704752
0001f0 1c bf 0c 3e 20 75 93 bd fb 96 0c be f2 9d bf 3d
       0.13744777 -0.07200074 -0.1372947 0.093562976
000200 5f 9f d5 3d cf 6b bf 3d 9c 2f 67 3d b3 67 c9 bb
       0.10430788 0.09346735 0.05644189 -0.006146395
000210 c4 83 1f 3e c2 0f 36 bc 26 f7 18 be 9d b1 2e be
       0.15577608 -0.011112155 -0.1493803 -0.17059942
000220 61 e4 21 3e 04 f5 1d be b0 a8 78 3b 29 ca 0d be
       0.15809776 -0.15425497 0.0037942342 -0.13846649
000230 62 d8 01 3e b7 44 c2 bb 9b 4c b7 3d df 96 6f 3c
       0.126802 -0.0059286016 0.08950158 0.014623373
000240 42 83 27 3e 8b 68 f8 3d 51 7b b8 3d 68 37 a2 3d
       0.16358665 0.12129315 0.09007896 0.07920724
000250 fd 73 1d 3e c1 e7 ac bd e4 af 3e 3b d7 be 32 3d
       0.15376277 -0.08442641 0.0029096538 0.04363903
000260 21 e9 6b bd 33 54 1b be 08 74 2e be bb 1c 0e 3e
       -0.057595376 -0.15168838 -0.1703645 0.13878147
000270 e0 02 2d be 46 9b 1a bc 4f ac 01 3e 85 5f 17 be
       -0.16895628 -0.009436434 0.12663387 -0.14782532
000280 b6 a7 ef bc d8 1a 21 3e 7e 76 d6 3d 32 3b 19 be
       -0.029254775 0.15732896 0.10471819 -0.14963987
000290 e7 e7 3c 3d 13 27 09 bd 6c 41 80 3c 52 ff 06 bc
       0.046119597 -0.03348453 0.015656196 -0.008239584
0002a0 2c a1 2d 3d b7 26 18 3e 12 d0 15 3e 44 87 b1 3d
       0.042390034 0.14858519 0.14630154 0.08668378
0002b0 c2 b5 01 bc 55 c6 ee bd 3a 9c d4 b8 e3 b9 85 3d
       -0.00791687 -0.116589226 -0.00010138047 0.06529596
0002c0 a0 dd 99 3d 11 cb 8f bd d7 c5 80 bc fa 70 be bd
       0.07512975 -0.07021154 -0.015719337 -0.09298892
0002d0 b0 67 60 bd 80 03 a3 3d 08 f7 3b bc 86 7c 91 bd
       -0.054786384 0.07959652 -0.011472471 -0.07103829
0002e0 1c f0 4c 3c c7 82 34 3e 87 1c e4 bc 04 cd e0 3d
       0.012508418 0.17628013 -0.027845634 0.109766036
0002f0 0a 66 44 bc c6 48 ea 3d 7b 92 d1 bd 8f 60 ff bd
       -0.011987219 0.11439662 -0.10233017 -0.12469589
000300 64 de 10 3d ae b0 23 3c 53 6f 01 3d 00 7b 81 3d
       0.03536834 0.009990854 0.031600308 0.063222885
000310 f1 d1 b0 bc 00 ce c5 3d f1 8a 23 be 17 c4 03 3d
       -0.021584483 0.09658432 -0.1597097 0.032169428
000320 23 fc 31 be ca 20 ff bd 79 e5 26 3e 0e fc df bd
       -0.17381339 -0.12457426 0.16298474 -0.109367475
000330 99 67 e1 3d 1b e7 d8 bb c5 5e ce 3d e8 f8 0f 3e
       0.11006088 -0.006619347 0.100766696 0.14059794
000340 e4 b6 25 be 6e 05 15 3c 90 58 19 bc c6 55 22 be
       -0.16183048 0.009095533 -0.009359494 -0.15853032
000350 f0 94 fb bd b0 55 0f 3d bd 3b 89 bd e6 31 1b 3e
       -0.12284267 0.034993827 -0.06700847 0.15155753
000360 6a 48 3a 3e f7 36 85 bd 83 f1 8f 3d ee 84 78 3d
       0.18191686 -0.06504624 0.070284866 0.060673647
000370 8f a9 68 3d 20 be ef bd 8d 43 21 be 2d ca fc bd
       0.05680233 -0.11706185 -0.15748425 -0.123432495
000380 d1 26 a0 bd dc 9e 55 3d a2 c2 f5 bd 67 7b 16 be
       -0.07819904 0.052153453 -0.12000014 -0.14695512
000390 85 4f dd 3d f2 07 72 3d 2d 71 fe 3c 24 52 bb 3d
       0.10806183 0.05908961 0.031059826 0.091465265
0003a0 18 b1 fe 3d 71 3d 0b be a6 81 f9 3d 57 33 0f 3e
       0.12436122 -0.13597657 0.121829316 0.13984428
0003b0 97 01 99 bd ee 67 37 3b bc 68 f2 3d aa 42 33 bd
       -0.07471006 0.002798553 0.11836383 -0.043764748
0003c0 30 48 13 be 76 9c 62 bb b0 ec bc 3d f6 ee bf 3d
       -0.14383006 -0.0034578121 0.09224832 0.0937175
0003d0 07 01 f1 bc 49 8d f0 3d 0d 61 87 bc 4a 57 a6 3d
       -0.029419435 0.11745698 -0.01652577 0.08122118
0003e0 a1 88 08 be 74 51 d9 3d 59 4a 48 3d 50 e6 95 bd
       -0.1333337 0.10611239 0.04889903 -0.07319319
0003f0 07 8b 02 be fc d6 2b 3e c4 7d 2c bd c8 9e e9 3d
       -0.12748347 0.16781229 -0.042112127 0.11407238

critic.2.bias f4 [32]
000000 05 44 03 be 58 b9 19 be 9a 98 36 bd 1d 66 f7 bd
       -0.12818916 -0.1501211 -0.044579126 -0.120800234
000010 2f 27 be bd 83 81 d7 bc ae 5e 51 bd 91 5d 83 3c
       -0.092848174 -0.026306873 -0.051115684 0.016035827
000020 5f 36 c9 3d bc 2c b0 3b 34 a3 93 bd de 8f 2a be
       0.098248236 0.0053764265 -0.07208863 -0.16656443
000030 b4 fa 0f be 2f c1 93 3d 4d 59 16 bc 96 07 85 bd
       -0.1406048 0.07214581 -0.009176564 -0.064955875
000040 58 6f be bd fa eb ad 3d ce 71 c5 ba 3c 1f bb bd
       -0.09298581 0.084922746 -0.0015063824 -0.09136817
000050 86 fa c4 bd cf a2 1e be 5c e4 f5 bd ea fc 93 3d
       -0.09618096 -0.15491794 -0.12006447 0.07225974
000060 7f 77 cd 3d 8e f8 08 be da 04 0f 3c c2 ce e9 3d
       0.10032558 -0.13376066 0.008729184 0.11416389
000070 68 c8 1b 3d ac fb 19 be 28 8a 2b be 13 0c 12 be
       0.03803292 -0.15037411 -0.16751921 -0.14262418

critic.4.weight f4 [1, 32]
000000 3d 5c 9a 3d 40 0e 0c be 2e 28 00 3e d4 37 07 3e
       0.07537124 -0.13677311 0.12515327 0.1320489
000010 f0 4c 21 3e 5c 6a c6 3d df ca 0e 3e c8 03 02 be
       0.15752006 0.09688255 0.13944577 -0.12696755
000020 60 8d 87 3d e6 ee 45 bc 6e 4e d6 bd 6c a8 08 3e
       0.06618762 -0.012080884 -0.10464178 0.13345498
000030 10 d2 b5 3c 45 1f a5 bd 73 c8 0c 3e 20 4b 8f bd
       0.022194892 -0.08062605 0.1374834 -0.06996751
000040 18 ca d8 3d 85 2d ef 3d 73 8c 1b be 06 94 64 bd
       0.10585421 0.11678604 -0.15190296 -0.05580523
000050 92 35 13 bd 3a 3f 17 be a7 c1 bf bd 15 9c f5 bd
       -0.03593976 -0.14770213 -0.09363108 -0.11992661
000060 00 48 34 be 88 19 9b bd c3 2c 2f 3e 56 92 23 bd
       -0.17605591 -0.07573229 0.17106919 -0.03993448
000070 dc 0d 9d 3d 35 3c ae 3d 16 87 06 be ac c5 22 be
       0.07668659 0.08507577 -0.13137469 -0.15895718

exp_avg f4 [32, 4]
000000 6c d2 d5 38 68 bc e7 b8 52 db 89 3b cb 85 bb 3b
       0.000101958256 -0.00011050032 0.004207053 0.0057227365
000010 99 68 16 39 9a 0d 01 3a 5b 98 8f bb fb fe ac bb
       0.0001434408 0.0004922986 -0.004382176 -0.0052794195
000020 cf af 1a 38 7e 2d 1f 39 56 41 3c ba 6f f7 3b ba
       3.6880196e-05 0.00015180369 -0.00071813667 -0.00071703544
000030 aa c1 04 b8 0b c4 01 b7 bd aa af 39 58 e9 fc 39
       -3.1651616e-05 -7.734644e-06 0.0003350581 0.0004823904
000040 fd 1c a5 b8 aa 74 e1 39 f3 00 aa bb b6 4a d2 bb
       -7.8732126e-05 0.00043002266 -0.0051881014 -0.0064175976
000050 43 a6 87 b8 bc f1 a8 b9 2c 56 3f 3b f5 d8 6f 3b
       -6.46827e-05 -0.00032223563 0.002919565 0.0036597822
000060 cc fe 3c 39 d5 93 52 3a 2d e2 b9 bb 89 8d cf bb
       0.00018023996 0.0008032893 -0.005672714 -0.006334011
000070 e0 a3 22 39 fd ad c1 39 9c 68 25 bb 43 06 46 bb
       0.00015510572 0.0003694146 -0.0025239354 -0.0030216135
000080 e0 65 d3 38 76 48 d3 39 a5 26 8f bb 69 6b b5 bb
       0.0001008024 0.00040299044 -0.0043686205 -0.005536486
000090 5a 95 8e b8 94 eb d9 39 29 b5 13 bc 2a c6 44 bc
       -6.7989065e-05 0.00041564985 -0.00901536 -0.012010137
0000a0 57 f8 70 38 d6 d2 4f 38 fb 61 5e b8 43 ca 74 b8
       5.7451743e-05 4.9549002e-05 -5.3020176e-05 -5.8362504e-05
0000b0 1f 41 ae 38 f5 79 cd b9 42 26 d5 3b f0 48 0a 3c
       8.309096e-05 -0.00039191512 0.006504805 0.008440241
0000c0 12 43 13 38 67 ed 0c b9 d3 24 33 3b 3f 17 6f 3b
       3.5109995e-05 -0.0001343988 0.0027335181 0.0036482362
0000d0 2b 09 cf 37 c9 f6 04 39 f5 69 d3 ba 75 76 07 bb
       2.4680592e-05 0.00012680436 -0.00161296 -0.002066997
0000e0 d6 85 8b 39 43 be 44 b9 97 da de 3b 5d 2a 18 3c
       0.00026611862 -0.00018762895 0.0068009603 0.009287444
0000f0 1f ab 02 b9 af 4b 9b b9 05 9b 02 3b 3a 7b 1e 3b
       -0.00012461514 -0.00029620292 0.0019928825 0.0024182335
000100 4c be e5 38 15 83 01 3a cc ce 86 bb 79 f4 a6 bb
       0.000109550165 0.0004940492 -0.0041140076 -0.0050950614
000110 1d 79 2f 39 6d 02 6e 39 9c f1 1e bb e7 af 50 bb
       0.00016734419 0.00022698352 -0.0024252897 -0.0031843127
000120 52 ba 32 b9 93 33 db b6 94 9b b4 bb d4 66 00 bc
       -0.00017044813 -6.5327126e-06 -0.0055117104 -0.007837016
000130 b5 66 ae b8 b5 bc b5 35 a3 d1 34 bb e1 c5 7b bb
       -8.316097e-05 1.3540472e-06 -0.0027590774 -0.0038417506
000140 5b 46 51 b6 19 75 ff b9 09 9e b9 3b 25 ab ef 3b
       -3.118438e-06 -0.00048724635 0.005664591 0.007314103
000150 5a 32 2b 38 b3 a5 9d 39 7a 5c 93 bb b9 12 c1 bb
       4.081647e-05 0.0003006883 -0.004497108 -0.0058921245
000160 a5 d5 85 b7 30 ab 93 b8 f3 40 de 39 7e fc ef 39
       -1.5954321e-05 -7.0413924e-05 0.0004239153 0.00045773754
000170 7e d7 9b b8 73 c8 f1 b9 7d 5b 9a 3b 7f 5a c2 3b
       -7.4311145e-05 -0.00046116448 0.0047106133 0.005931198
000180 36 b5 34 38 7b 03 89 b9 79 4c ed 3b 21 b8 20 3c
       4.308411e-05 -0.0002613327 0.0072417823 0.009809525
000190 d7 3f cc 38 7d 5b 5e 39 df 31 cb ba 6b f9 f9 ba
       9.739369e-05 0.00021205652 -0.0015502534 -0.0019071525
0001a0 c3 7e ca b6 5e 33 3c b6 ea d2 9b 3a 41 dd dc 3a
       -6.034826e-06 -2.8044083e-06 0.0011888419 0.0016850607
0001b0 05 92 8e b8 fa ef a6 b9 4b cc 23 3b 3a 6c 40 3b
       -6.798286e-05 -0.00031840784 0.0024993594 0.0029361383
0001c0 81 21 da 35 0e d8 e1 38 74 9c 11 bb 15 6a 43 bb
       1.6252017e-06 0.000107690794 -0.0022218497 -0.0029817868
0001d0 d1 3d 99 36 5c fe 04 39 91 6a f3 ba 55 d3 1a bb
       4.5669517e-06 0.00012683257 -0.0018571188 -0.00236245
0001e0 4c 30 18 38 fd 4c b3 b9 0a c7 e1 3b 0a 85 13 3c
       3.6284604e-05 -0.000341989 0.0068901824 0.009003887
0001f0 e4 60 85 b7 53 a0 3b b8 2a 4b b0 39 41 79 f6 39
       -1.5899954e-05 -4.4733588e-05 0.00033625338 0.00047011118

exp_avg_sq f4 [32, 4]
000000 a4 27 30 31 dd a0 43 31 1a ea 05 35 f9 61 82 35
       2.5633904e-09 2.8467675e-09 4.9887024e-07 9.714269e-07
000010 aa 4b 41 32 d7 63 c3 32 bf 9b 2d 35 0c cf 9c 35
       1.1251283e-08 2.274639e-08 6.467416e-07 1.1683164e-06
000020 c3 62 20 30 40 d1 70 30 16 e0 cf 32 f4 03 1b 33
       5.834801e-10 8.7608854e-10 2.4199874e-08 3.6092345e-08
000030 16 48 36 30 0f fc 66 30 8e e9 b0 31 67 33 98 32
       6.6313655e-10 8.403171e-10 5.1488263e-09 1.7718504e-08
000040 6c e5 4a 32 5f 09 fd 32 48 18 9d 35 44 04 1f 36
       1.1810112e-08 2.9457338e-08 1.1704478e-06 2.369533e-06
000050 40 20 a3 31 b6 93 d6 31 c3 06 95 34 93 15 09 35
       4.7475908e-09 6.2450125e-09 2.7758333e-07 5.106787e-07
000060 30 e2 96 32 2c e4 1c 33 91 c6 8e 35 e8 5c e0 35
       1.7565156e-08 3.65291e-08 1.0637615e-06 1.671634e-06
000070 52 cd a5 31 9b 07 d0 31 ac 59 67 34 c2 fe c7 34
       4.8254742e-09 6.0544614e-09 2.1546174e-07 3.7252e-07
000080 56 02 81 32 3c 1f 3c 33 17 f9 a7 35 8b 28 3f 36
       1.5018639e-08 4.380057e-08 1.2514964e-06 2.8484817e-06
000090 bf c1 ee 32 ab cd 8b 33 ec a0 65 36 35 fd f4 36
       2.7794952e-08 6.510103e-08 3.4217328e-06 7.301244e-06
0000a0 38 6e 11 31 26 34 a3 31 04 24 b7 33 d2 9d 7a 34
       2.116293e-09 4.749853e-09 8.528153e-08 2.3340479e-07
0000b0 11 85 19 32 1d 97 96 32 65 66 b5 35 94 b8 2e 36
       8.936028e-09 1.7531017e-08 1.3515352e-06 2.603546e-06
0000c0 b5 b1 0f 31 f0 58 25 31 59 54 71 34 c5 39 e6 34
       2.0910254e-09 2.4061215e-09 2.247556e-07 4.288287e-07
0000d0 7f c4 2f 31 d9 3f fa 31 2d 20 1a 34 e6 3c b7 34
       2.5577547e-09 7.2832163e-09 1.4354073e-07 3.4130716e-07
0000e0 cf e5 75 32 b3 d7 e5 32 af eb e5 35 bd dc 72 36
       1.4313129e-08 2.6757197e-08 1.7130423e-06 3.6189297e-06
0000f0 08 3f af 31 63 98 57 32 6a 1d 15 34 46 c4 a0 34
       5.100336e-09 1.2549296e-08 1.3887407e-07 2.994513e-07
000100 fc a1 5a 32 5f ba cc 32 a8 aa 27 35 f4 16 a1 35
       1.2726101e-08 2.3833477e-08 6.2460686e-07 1.2002115e-06
000110 a6 7d 8d 31 83 23 89 31 df ad 65 34 b2 75 da 34
       4.1179247e-09 3.991262e-09 2.1390541e-07 4.06913e-07
000120 8c 38 00 32 c1 9c 98 32 d7 fe cd 35 1c 39 67 36
       7.463438e-09 1.7766412e-08 1.5347858e-06 3.4454924e-06
000130 c3 f5 1f 31 6d 97 f6 31 98 80 f6 34 14 f3 8e 35
       2.3277245e-09 7.1767574e-09 4.5914635e-07 1.065057e-06
000140 f6 8a 89 32 7e 6b 2f 33 a9 ca 9a 35 ef 89 27 36
       1.6012091e-08 4.0843126e-08 1.1532876e-06 2.4965227e-06
000150 fa 63 b5 31 07 00 01 32 0c 3d 2e 35 f2 5f a5 35
       5.2791593e-09 7.5087945e-09 6.4908886e-07 1.2321382e-06
000160 d5 da 35 2f ed b1 9f 2f db 4d d7 31 e0 fd 4d 32
       1.6539599e-10 2.9048355e-10 6.2661747e-09 1.1990295e-08
000170 0f 8c 30 32 41 c3 90 32 e5 5d 5b 35 83 46 ce 35
       1.0276394e-08 1.6852598e-08 8.172049e-07 1.5368718e-06
000180 92 7d 05 33 64 c8 0d 33 de d7 2e 36 80 cf ba 36
       3.108068e-08 3.3011375e-08 2.6053672e-06 5.567388e-06
000190 45 27 bf 30 bc 0f eb 30 f9 d1 ba 33 aa 51 2e 34
       1.390824e-09 1.7102972e-09 8.699494e-08 1.6234722e-07
0001a0 52 26 5f 30 ab 69 51 30 77 9c 54 33 00 18 e1 33
       8.1181384e-10 7.618392e-10 4.95024e-08 1.04817445e-07
0001b0 46 ae 0c 31 23 90 d5 31 ac 89 60 34 c2 47 c4 34
       2.0471744e-09 6.2155023e-09 2.091171e-07 3.6560056e-07
0001c0 df ca 73 31 af a7 34 32 63 11 b9 34 8c 25 5f 35
       3.5476473e-09 1.0515506e-08 3.4471586e-07 8.312861e-07
0001d0 09 5f 45 30 27 74 70 30 4f f2 dd 33 5c 88 44 34
       7.1803236e-10 8.7476554e-10 1.033519e-07 1.830353e-07
0001e0 54 80 53 32 62 01 c2 32 2b dd c9 35 53 06 42 36
       1.2310995e-08 2.2585201e-08 1.5040035e-06 2.8911934e-06
0001f0 65 68 7b 2f 11 3c d3 30 4b ff 2c 32 96 9b 1b 33
       2.2865405e-10 1.5369342e-09 1.0069765e-08 3.6230254e-08

exp_avg f4 [32]
000000 81 c6 63 b8 ca cc 16 3b 51 2c 1b 3a 20 69 e6 b9
       -5.430589e-05 0.0023010247 0.00059193844 -0.00043947343
000010 8f 8c a0 3a 93 3c 8d ba 48 67 5e 3b 73 96 d9 3a
       0.0012248921 -0.0010775499 0.0033936072 0.0016600623
000020 7c 44 ba 3a f1 ec 13 3a 40 e7 9f 39 93 e6 58 ba
       0.0014211084 0.0005642912 0.00030499138 -0.00082741043
000030 17 99 c1 b9 1a 2c 07 3a b1 a6 6e b9 fb 96 b0 ba
       -0.0003692589 0.0005156413 -0.00022759546 -0.001347273
000040 9c 73 0d 3b 58 88 8d 3a d8 29 64 ba e8 1b 8f b9
       0.00215838 0.001079808 -0.0008703745 -0.00027295877
000050 ed 3b 03 bb 04 ed 5b 3a fa ed 8f b9 7a b0 c1 ba
       -0.0020024732 0.0008389505 -0.00027452392 -0.0014777326
000060 d2 77 97 b9 e5 61 86 3a a9 6b 89 b9 33 fd 8d ba
       -0.00028890237 0.0010252564 -0.0002621089 -0.0010832906
000070 05 99 ac 39 46 20 e8 39 60 b6 8f ba 3a 5b 16 b9
       0.00032920405 0.00044274534 -0.0010964386 -0.000143391

exp_avg_sq f4 [32]
000000 8d 1a 8e 32 d2 8f ba 34 44 55 7e 32 b1 17 c2 32
       1.654305e-08 3.4749843e-07 1.4804133e-08 2.2595346e-08
000010 12 b0 e0 34 21 8d ba 33 d7 da 14 35 7c 0c f1 33
       4.185136e-07 8.686971e-08 5.545275e-07 1.1224708e-07
000020 bd 71 39 35 3d 10 78 35 91 d5 a2 33 d0 d6 28 34
       6.908338e-07 9.241083e-07 7.5825604e-08 1.5724368e-07
000030 61 17 c7 32 ad ce b8 33 1d 49 cf 34 27 2a 06 34
       2.317728e-08 8.605762e-08 3.8609952e-07 1.2495057e-07
000040 d2 e7 b9 34 89 fd b9 33 7d 3b b0 34 07 cc 08 34
       3.4627607e-07 8.6608516e-08 3.2825838e-07 1.2740212e-07
000050 1a b1 e5 34 40 62 b2 33 47 e9 8a 31 ad 7a 8e 34
       4.2783432e-07 8.3066425e-08 4.042849e-09 2.653882e-07
000060 47 9e 1e 35 68 3d 1f 33 bb 88 0b 32 69 97 96 33
       5.908991e-07 3.707592e-08 8.121954e-09 7.012461e-08
000070 d6 b5 47 34 33 a7 19 32 ce a5 a1 34 e8 9c 41 32
       1.8599471e-07 8.943789e-09 3.0109226e-07 1.1269755e-08

exp_avg f4 [32, 32]
000000 ee f3 ec 39 f6 43 f2 ba 10 ab 52 bb bf 98 6f bb
       0.0004519517 -0.0018483389 -0.0032145418 -0.003655955
000010 08 22 02 3b 3a 25 23 bb c8 54 02 bb 83 fa c2 ba
       0.001985671 -0.0024894015 -0.001988696 -0.0014875684
000020 e0 b3 e6 ba cf 4f b2 3a a0 73 17 b9 b8 69 90 38
       -0.0017601214 0.0013604107 -0.00014443556 6.886147e-05
000030 1e 04 c6 37 cc 62 df ba b4 ee a5 3b 60 d1 2f bb
       2.3605357e-05 -0.0017042994 0.005063856 -0.0026827678
000040 60 9c 2e bb 43 6e b3 ba 7b c4 8a 3b 65 32 9b 3b
       -0.00266435 -0.0013689477 0.004234848 0.004736232
000050 57 9a 25 bb 53 09 01 ba e3 8d 18 bb d3 ec 7b ba
       -0.0025268996 -0.0004922349 -0.002327793 -0.00096101797
000060 5a 4a 89 3a 7c b6 95 ba 74 00 aa 3b 89 f5 f9 ba
       0.0010474429 -0.0011422182 0.0051880423 -0.0019070368
000070 1b cb 56 3a cb 6f 6b ba 7f f6 39 3b ec 88 0a bb
       0.0008193717 -0.0008981197 0.0028375683 -0.002113874
000080 50 6d 67 ba 9b b4 2e 3b d5 ca 8e 3b f9 9d a1 3b
       -0.00088282395 0.0026657942 0.0043576756 0.004932162
000090 8b 87 54 bb 8a 94 6f 3b 31 f8 36 3b 13 0a 19 3b
       -0.0032429423 0.0036557042 0.002791893 0.0023351952
0000a0 e7 7f 1b 3b d2 f2 07 bb d5 d3 f7 b8 8f b8 e2 b9
       0.0023727359 -0.0020744097 -0.000118173346 -0.00043243586
0000b0 3a 30 1f b9 ae 2d 19 3b 4d 49 05 bc d5 dd 6e 3b
       -0.00015181387 0.0023373174 -0.008135152 0.003644814
0000c0 da 54 79 3b b0 60 0d 3b 88 d0 d5 bb 02 36 f4 bb
       0.003804496 0.0021572523 -0.006525103 -0.0074527273
0000d0 2e 36 65 3b 77 6f 75 3a bc 0d 61 3b 8d e7 cf 3a
       0.003497492 0.0009362618 0.0034340462 0.0015861854
0000e0 fe e8 af ba 19 ca fe 3a 54 1d 05 bc a5 ae 31 3b
       -0.0013420878 0.0019438892 -0.008124668 0.0027112153
0000f0 b0 1d bd ba 32 a4 a3 3a 71 e2 95 bb 33 5c 3d 3b
       -0.0014428403 0.0012484847 -0.004574113 0.0028894066
000100 f2 a3 69 b9 c8 a7 5b 3b 9c 08 cd 3b d0 86 ec 3b
       -0.00022281686 0.0033516753 0.00625713 0.0072182193
000110 41 5f 57 bb de 14 a2 3b 36 e8 68 3b c0 70 26 3b
       -0.0032863172 0.004946335 0.00355388 0.0025396794
000120 3a 23 6b 3b eb 1d 1b bb db c0 58 3a b7 d1 99 38
       0.003587915 -0.0023668956 0.0008268484 7.334671e-05
000130 0a e9 34 b8 04 00 5a 3b 90 08 07 bc 0f 99 a9 3b
       -4.313238e-05 0.003326417 -0.008241788 0.0051757167
000140 cc 3d a9 3b 97 7c 18 3b a3 a6 ea bb 75 d3 f9 bb
       0.0051648375 0.002326762 -0.007160978 -0.0076240846
000150 1c 7e a3 3b 9f a4 42 3a 59 d7 8d 3b 55 89 f3 3a
       0.0049893986 0.0007425043 0.00432865 0.0018580357
000160 b3 f4 0c bb 7f c1 e8 3a 71 2c 0d bc c9 d7 68 3b
       -0.0021508157 0.0017757862 -0.008616553 0.0035529009
000170 4f 37 9c ba 25 83 c4 3a 3e e4 92 bb 28 3a 80 3b
       -0.0011918339 0.0014992697 -0.004482775 0.0039131828
000180 d2 4c 80 b8 ca ff 1d 39 a3 3a 87 39 db e3 93 39
       -6.1178245e-05 0.00015067976 0.00025792894 0.0002820779
000190 2c 9a 27 b9 89 82 32 39 93 50 32 39 5f 27 18 39
       -0.00015983795 0.00017024031 0.00017005419 0.00014510516
0001a0 af 3c d8 38 a9 d5 d2 b8 4d e3 c6 b7 83 62 be b7
       0.00010310986 -0.000100533776 -2.3709285e-05 -2.2695638e-05
0001b0 c5 b7 8f b6 07 95 ed 38 0a 65 cd b9 78 50 5e 39
       -4.2831257e-06 0.00011328799 -0.00039175927 0.00021201547
0001c0 77 4d 4b 39 aa 8a f2 38 6a 0a 9e b9 84 a0 bf b9
       0.00019388447 0.000115652874 -0.00030143867 -0.00036549952
0001d0 49 c9 38 39 43 0c 49 38 c4 64 48 39 bc 2c 91 38
       0.00017622592 4.7933554e-05 0.00019111024 6.922471e-05
0001e0 e5 54 58 b8 e2 10 f1 38 da 38 c5 b9 d3 8b 10 39
       -5.1577477e-05 0.0001149492 -0.00037617126 0.00013784999
0001f0 73 a6 9f b8 12 8c 96 38 39 3f 72 b9 dd f1 36 39
       -7.6127144e-05 7.1786475e-05 -0.00023102471 0.00017446974
000200 cf be 7b 39 85 3f 09 bb 7a 5d 70 bb 26 79 8c bb
       0.00024008307 -0.0020942402 -0.003667681 -0.004286903
000210 6f 8c 16 3b 94 33 50 bb 01 87 0a bb a7 ad d2 ba
       0.0022971889 -0.0031769024 -0.0021137598 -0.0016073481
000220 bd e0 0e bb f7 fc c9 3a 44 84 c3 b9 17 a0 fc 38
       -0.0021801435 0.0015410472 -0.00037291844 0.000120461154
000230 1f 11 7b 38 b3 f0 06 bb a2 bd bc 3b af a8 4a bb
       5.985901e-05 -0.0020590245 0.0057599107 -0.0030923297
000240 26 79 55 bb 01 93 c4 ba a8 5a 9f 3b 36 ed ac 3b
       -0.003257343 -0.0014997424 0.004863102 0.005277301
000250 22 c9 4b bb ec 55 19 ba 33 31 32 bb e2 78 a4 ba
       -0.0031095226 -0.000584929 -0.002718997 -0.0012548233
000260 5a 2b a9 3a c6 18 9f ba ba bc c3 3b 72 26 0f bb
       0.0012906597 -0.001213812 0.0059734257 -0.0021842984
000270 4b b0 5f 3a 07 be 6f ba d5 5e 4b 3b 1b 3e 17 bb
       0.00085330446 -0.0009145443 0.0031031866 -0.002307779
000280 ac d3 f3 39 9d cf cd 3a e1 7a 57 3b 6d 94 80 3b
       0.0004650628 0.0015702132 0.0032879638 0.0039239437
000290 75 42 ae ba be 10 39 3b 46 2b d2 3a 92 35 72 3a
       -0.0013294952 0.002823874 0.0016034625 0.000923955
0002a0 7c ca 0d 3b 4c 00 90 ba 0d 60 7e 3a 75 74 94 39
       0.0021635583 -0.0010986417 0.0009703644 0.00028315527
0002b0 08 88 48 b7 5c 89 ef 3a af 71 58 bb 84 87 2e 3b
       -1.1952601e-05 0.0018275189 -0.0033026745 0.0026631067
0002c0 41 d0 36 3b e0 7a 7a 3a e0 de 51 bb 65 fc 43 bb
       0.0027895125 0.0009555053 -0.0032023713 -0.0029905078
0002d0 bb ac 35 3b 53 26 3b 39 6a 38 0b 3b 22 43 85 3a
       0.0027721364 0.00017847987 0.0021243342 0.0010167102
0002e0 38 54 af ba b4 b0 02 3a 7c b5 73 bb ee 28 f2 3a
       -0.001337654 0.0004985437 -0.003718703 0.0018475333
0002f0 89 0d a0 b9 d7 a3 1e 3a fd 9b d3 ba f9 3d f4 3a
       -0.00030527663 0.0006051636 -0.0016144511 0.0018634192
000300 89 f9 01 ba 67 ee b1 3b 92 8d 25 3c 81 11 3e 3c
       -0.0004958143 0.005430031 0.010104554 0.011600853
000310 74 f7 ad bb 38 ca ff 3b 8f c1 bd 3b 81 4e 8a 3b
       -0.0053090397 0.007806089 0.0057908962 0.004220784
000320 36 e1 b8 3b 10 86 78 bb 61 cd 9c 3a e9 e8 9c 38
       0.0056420816 -0.0037921704 0.0011963063 7.4820426e-05
000330 f1 81 55 b8 dd 55 ae 3b 98 b5 59 bc 3c e7 09 3c
       -5.0904175e-05 0.0053202943 -0.013287924 0.008416947
000340 1a de 06 3c 5a f9 76 3b 7a ab 3b bc 0a 8a 49 bc
       0.008231664 0.0037685246 -0.011454457 -0.0123009775
000350 6c a4 02 3c 98 06 a1 3a f8 1d e4 3b 7a ab 3e 3b
       0.007973772 0.001228529 0.0069615804 0.0029093907
000360 54 f0 5b bb c7 bb 40 3b 13 aa 61 bc f8 61 b9 3b
       -0.0033559995 0.00294088 -0.013773459 0.0056574307
000370 6a 70 ff ba a9 9f 21 3b 49 09 ef bb 26 66 d2 3b
       -0.0019488458 0.0024661815 -0.007294808 0.0064208684
000380 a3 18 21 ba 1f 6f 28 3b 96 cb 8f 3b 7f 31 a4 3b
       -0.0006145334 0.0025701 0.004388283 0.005010783
000390 b0 78 40 bb 40 1a 6e 3b 60 1c 30 3b 86 06 0d 3b
       -0.002936881 0.0036331564 0.0026872382 0.002151878
0003a0 53 63 1f 3b 19 29 fd ba 4f 27 0a 39 38 e1 92 b9
       0.0024320676 -0.0019314616 0.00013175349 -0.0002801509
0003b0 72 2a f2 b8 55 93 19 3b 45 bb f0 bb 95 64 6f 3b
       -0.00011547365 0.0023433764 -0.007346543 0.0036528457
0003c0 87 84 77 3b 54 22 01 3b 70 2b c5 bb 20 e0 dc bb
       0.0037768201 0.00197043 -0.006017141 -0.006740585
0003d0 2f 2a 67 3b db 8d 51 3a 41 9e 59 3b cd a1 c5 3a
       0.0035272946 0.00079938554 0.00332059 0.0015078128
0003e0 34 84 b7 ba bb 31 e0 3a a1 8e f3 bb db a6 2c 3b
       -0.0014001192 0.0017104665 -0.007432774 0.002634457
0003f0 3a ad a0 ba 43 21 99 3a 67 bf 85 bb a4 88 39 3b
       -0.0012258657 0.0011682886 -0.004081655 0.0028310204
